output/custom/decoder_pretrain_100_3.467182159423828.pt (torch, 588075 bytes, 60 tensors)

cond_trans.0.weight f4 [60, 60]
000000 de cb 15 bd b6 3e 98 bd 44 e7 df bd 76 fd 04 be
       -0.036571376 -0.07433836 -0.10932782 -0.12987313
000010 bf 86 a4 3c 2b c0 c8 bd b4 d4 e6 3c 3d bd 8f bd
       0.020083783 -0.09802278 0.028177597 -0.07018516
000020 23 e1 d8 3d 26 29 2e 3c 0b 83 a8 bd bf 8b fd 3d
       0.105898164 0.010629928 -0.082281195 0.1238017
000030 59 3f ca 3d 28 b4 c9 bd af 63 c8 3c 58 44 85 3d
       0.09875364 -0.09848815 0.024461595 0.06507176
000040 e1 e1 e6 3d 6a 6a d1 bd e9 1d db 3d 42 1c a4 bd
       0.11273552 -0.10225375 0.10699064 -0.08013202
000050 6a 36 a4 3d 2f a0 88 3b c5 e0 0c 3d df d5 10 3d
       0.08018191 0.004169486 0.034394044 0.035360213
000060 1d 91 35 bd a2 e8 e3 3c 0d 27 d3 bd 48 d6 c4 3d
       -0.044327844 0.027820889 -0.10310183 0.096111834
000070 d9 fd a7 bd 3c 50 31 3d 7e d2 41 bc ad ba fe bc
       -0.082027145 0.043289408 -0.01182997 -0.031094873
000080 43 bb be 3d 20 ba d4 3c fd a4 f0 3d 62 35 67 3d
       0.09313061 0.025967658 0.11750219 0.056447394
000090 ec cd 3e bd 75 f4 fa 3d d1 1f 8a 3d 1d d8 0d bd
       -0.0465831 0.12253658 0.0674435 -0.03462993
0000a0 92 0c 9f bd 6f 08 c2 bd 8c 20 c9 3d 39 e6 a2 bd
       -0.077660695 -0.09474265 0.09820661 -0.07954068
0000b0 49 69 60 3c d1 54 82 3c d9 cd cd 3c ec 4f 64 3d
       0.013696977 0.015909584 0.02512257 0.055740282
0000c0 c5 63 04 be b8 4b 8d bd 98 6d 3a bc 9e ee eb bc
       -0.12928684 -0.06899208 -0.011378668 -0.028800305
0000d0 69 87 7f 3d cb 49 d7 bc ee f6 e7 3b 54 c2 14 bd
       0.062384997 -0.026280304 0.007078997 -0.03631814
0000e0 65 b4 dd bc 30 19 58 3c 35 3d bd bd e2 1e 5d 3d
       -0.027063558 0.013189599 -0.0924019 0.05398453
0000f0 f0 42 84 3d 0a 86 d4 3d e6 c9 ba bd 32 67 d1 bd
       0.0645808 0.103771284 -0.0912054 -0.10224761
000100 34 4b 19 3d 70 45 51 3c e8 54 6c bd 20 17 2e 3d
       0.037425235 0.012772903 -0.05769816 0.042502522
000110 96 c6 87 3d 12 14 d8 bd 60 42 72 bd 58 d8 de 3c
       0.06629674 -0.10550703 -0.05914533 0.02720277
000120 8e 19 8b 3d 70 ee 2e bd 58 e6 02 bd e6 14 81 3d
       0.067919835 -0.04270786 -0.031957954 0.06302814
000130 00 89 70 3c b8 41 10 3d a4 80 8f bd 90 c1 db bc
       0.014681101 0.035218924 -0.07006958 -0.026825696
000140 9c 2a 39 3d 56 51 cb bd 8c ae d6 3d 3c 8c c6 bd
       0.04520665 -0.09927623 0.10482511 -0.09694716
000150 e0 40 43 3d 86 1a ac bd 0e 73 ae 3d c0 63 0f bc
       0.04766929 -0.084034964 0.08518039 -0.00875181
000160 4f 2e f5 bd 40 ba a8 bb f0 71 05 bd 78 3b 8f 3c
       -0.11971723 -0.005149156 -0.032579362 0.017484412
000170 10 29 0d 3d d3 2f eb bd c8 4e ba bd d8 7e 0e bc
       0.03446299 -0.11483731 -0.090970576 -0.008697234
000180 46 a1 c9 bd 7f 56 8c bd f0 1c 4c bc f0 a2 43 bd
       -0.098452136 -0.06852435 -0.012458071 -0.04776281
000190 16 74 15 bd 74 68 93 3d 2c ba 3c bd eb d2 ed bd
       -0.03648766 0.07197657 -0.046075985 -0.11612495
0001a0 30 38 e9 3d bc 35 2e 3d 5c 71 a2 bd 6c 5d ed bd
       0.1138767 0.042531714 -0.07931778 -0.115900844
0001b0 ca c9 6c bd 50 f8 28 3d ae ab 00 be 46 b1 dd 3d
       -0.05780963 0.041252434 -0.1256549 0.10824828
0001c0 fe b6 af bd a4 af ee bc 28 b0 37 bc 94 47 24 3d
       -0.08579825 -0.029136486 -0.0112114325 0.040107325
0001d0 2e 4f 92 bd 4f 52 00 be ee a8 bf bd 10 d6 f3 bc
       -0.071440086 -0.12531398 -0.09358393 -0.029765159
0001e0 a8 fe c4 3c 6c 71 92 3d 12 86 77 bd 0e 14 0a bd
       0.02404721 0.0715054 -0.060430594 -0.033710532
0001f0 08 95 ab bd fa b3 62 bd 72 53 76 bd 36 d2 ff 3d
       -0.08378035 -0.05534742 -0.060138173 0.124912664
000200 7c 31 f7 3d 18 61 37 3d b8 9e c2 3d ec 16 6b 3d
       0.12069985 0.04477033 0.095029294 0.057394907
000210 d8 ff f7 bc e0 21 b7 3d 9c 68 e5 3d 8a ef 8d 3d
       -0.030273363 0.08942008 0.11201593 0.06930454
000220 a4 26 9b 3d 38 00 fb bc be 05 b6 3d 20 ed cc bb
       0.075757295 -0.030639753 0.08887814 -0.0062538534
000230 74 95 b5 bc b8 d5 57 bc 50 1b b4 3d ea b2 c1 3d
       -0.022165991 -0.013173513 0.08794272 0.09457953
000240 56 d8 e8 bd 90 51 c9 bd 7c 93 78 3d d2 a3 df bd
       -0.11369388 -0.0983001 0.060687527 -0.10919918
000250 ea d1 e6 bd 0c bb 75 3d 9e 13 e9 bd a0 85 0d bc
       -0.11270507 0.059992835 -0.11380695 -0.008637816
000260 f6 00 a4 bd 08 14 d3 bd 12 50 a7 bd 78 12 84 3d
       -0.08007996 -0.10306555 -0.08169569 0.06448835
000270 80 6e fb 3b 5a 02 d4 3d 80 6c ef ba ff 23 d6 bd
       0.0076730847 0.10352011 -0.0018266588 -0.104560845
000280 a4 4f d6 3d e2 cf d8 bd 78 cd a5 3d cc 7d 7c 3d
       0.10464409 -0.105865255 0.08095831 0.061643407
000290 f8 5b f4 bc 94 1c f2 bc a8 f9 87 bd f8 34 73 3d
       -0.02982901 -0.029554643 -0.06639415 0.059376687
0002a0 14 08 3e 3d 50 78 64 bd 38 6a 06 3d 48 78 a6 3d
       0.046394423 -0.0557788 0.03281614 0.081284106
0002b0 9a c4 9e 3d 12 bd cd 3d 76 43 92 bd 99 c2 ec bd
       0.077523425 0.10045828 -0.071417734 -0.11560554
0002c0 b8 99 8e 3d a5 59 ca bd f4 79 8d 3d ec 6d 7d bd
       0.06962913 -0.098803796 0.06908026 -0.061872408
0002d0 ef 92 ec bc 96 b8 e1 bd 09 cf 25 3d 73 ff c1 bd
       -0.028878657 -0.11021535 0.040480647 -0.09472551
0002e0 d3 34 19 bd 76 74 b4 bd 9f 42 6f 3d e0 48 b0 bd
       -0.037403893 -0.08811276 0.058413144 -0.0860765
0002f0 d8 7e 09 3d 7b 96 16 3c 6d 3b 4d 3d b3 89 a6 3c
       0.033568233 0.009191151 0.0501055 0.020329332
000300 b1 0e 47 3d 24 66 a9 3d fb 92 8c bc f9 c3 fd bd
       0.048597995 0.08271435 -0.01715993 -0.123908944
000310 a9 ac 15 bd 87 ec bc bc 5c cd 7e 3d ec dd f1 3d
       -0.036541615 -0.023062004 0.062207565 0.11809906
000320 ec 8a c1 3d 00 47 86 3d cd 14 e2 bc f1 86 c2 3c
       0.09450325 0.06556511 -0.02759781 0.023745986
000330 9b 56 a3 3c 76 e0 ce bc 70 26 ff 3d 0f 3d 14 3d
       0.019938758 -0.025253516 0.12458503 0.036191043
000340 7a 5f be 3d 1f 99 70 bd dc ce f6 bd 9c 48 c3 3d
       0.092955545 -0.058739778 -0.12051174 0.095353335
000350 3b 03 85 3d e1 8e df 3d 81 f2 ea 3d 0f 11 0b bd
       0.06494757 0.10915924 0.11472035 -0.033951815
000360 9c 39 9a 3d 9c bf 19 3d 60 46 74 3d f1 4d 44 bd
       0.07530519 0.03753625 0.059637427 -0.047925893
000370 14 fa 92 3d 6b 02 8e 3d 01 e1 5f bd 00 ae 9a bc
       0.07176605 0.06934055 -0.05465794 -0.018881798
000380 8b 70 5f bd 96 64 ee 3d 61 f2 07 3e 59 a3 1f 3d
       -0.05455069 0.11640279 0.13276054 0.03897414
000390 df ea 07 bc a4 9f 8e 3d ca 87 03 3e a9 2e 4f bd
       -0.008295744 0.06964043 0.12844768 -0.050581608
0003a0 92 ce ca 3c 99 db 21 bd 89 76 aa bd 8b 4d 06 3e
       0.024756704 -0.039516065 -0.0832339 0.13115518
0003b0 05 fa 22 3c 2a 0f 8f 3d 25 19 f7 3d ef 5f e1 bd
       0.009947305 0.06985314 0.12065343 -0.11004626
0003c0 df 35 34 3d cd 34 bd 3d c5 1d a8 3d 5e e0 db 3d
       0.043996688 0.092385866 0.08208803 0.10736154
0003d0 d7 f3 a3 3c 33 50 e5 3d e5 40 37 bd d2 9a d3 bd
       0.020013733 0.111969374 -0.044739623 -0.10332264
0003e0 b4 73 74 3d 9e d9 b0 3d 8f 54 0a bd 98 2a cc bc
       0.059680656 0.08635257 -0.033772048 -0.024922654
0003f0 60 11 a3 bb 40 5c 94 3d fc 31 2e bd aa 9e ba bd
       -0.0049764365 0.07244158 -0.042528138 -0.09112294

cond_trans.0.bias f4 [60]
000000 e2 6b 19 3d ba af b5 3d 10 e2 6a 3d 6e 88 e0 3d
       0.0374564 0.08871408 0.057344496 0.10963522
000010 08 87 f4 bd 27 4e 9c 3d 84 ec 0e 3d 97 d2 8b bd
       -0.11939818 0.07632094 0.034893528 -0.06827276
000020 db ae e1 3b 38 82 be bd 58 f4 bd 3c 6d 67 12 bd
       0.0068872995 -0.09302181 0.023187801 -0.035743166
000030 ac b9 3c bd 89 55 51 3d b2 8d fb 3d 57 29 d4 bd
       -0.046075508 0.051106963 0.122828856 -0.103594474
000040 68 a8 c5 bd 2f 4e ee 3d 4f b3 a3 3d 70 e4 e9 bb
       -0.096512616 0.11636006 0.07993185 -0.0071378276
000050 78 c9 12 3d 9a 02 db 3d d9 8d 9f bd 68 0d cc bd
       0.035836667 0.106938556 -0.07790727 -0.099634945
000060 c9 44 dd bd c4 1f 9b 3c a3 d8 b9 bc 8d 13 06 bd
       -0.10804135 0.018936045 -0.022686308 -0.03273349
000070 af 35 8c 3c 39 0d ab 3d 9b 46 c5 3d 7c 16 bf bc
       0.017115442 0.083521314 0.096326075 -0.023326151
000080 c2 23 02 be 58 47 aa 3d 77 ce bf bc f0 c3 08 be
       -0.12708953 0.08314389 -0.02341388 -0.13355994
000090 dd ea 9b 3d 92 25 a7 bd c3 1b c6 3d ba 9a 82 3d
       0.07613156 -0.08161463 0.09673264 0.06377168
0000a0 d5 23 c2 bc 5a 59 82 3d 6e 31 e4 3d 3a 83 a9 bd
       -0.023698727 0.06364699 0.111422405 -0.082769826
0000b0 a3 65 f7 bd f5 ec cc bd f6 28 80 bd a1 28 de bd
       -0.120799325 -0.100061335 -0.06257813 -0.10847593
0000c0 65 16 a2 bb a6 13 a4 3c 6c 41 e9 3d 64 11 47 3d
       -0.0049465173 0.0200289 0.11389431 0.04860057
0000d0 55 e9 c9 3d 1c d0 1d bc 59 69 55 bd 5a c5 db 3d
       0.09858958 -0.009632137 -0.05210242 0.10731001
0000e0 bf 77 a9 bd d9 dc 00 3e 27 77 bf bd 62 91 88 bd
       -0.08274793 0.12584247 -0.093488984 -0.066683546

cond_trans.2.weight f4 [60, 60]
000000 4c 4e bf bd 70 e8 df bb 1d d0 cd bd c7 cd 39 bd
       -0.09341106 -0.0068331286 -0.1004946 -0.04536226
000010 86 02 d7 bd ae ef f6 3d 96 4c f7 bd c6 4d 83 bd
       -0.10498528 0.12057434 -0.120751545 -0.064113185
000020 bc ba a0 3d 89 07 98 3d 70 ba 5c bd 05 6d 57 bc
       0.07848117 0.07423312 -0.05388874 -0.013148551
000030 cc e1 04 bd 68 78 86 3d 8e 8c 02 bd 95 25 00 bd
       -0.0324419 0.065659344 -0.031872325 -0.03128584
000040 6c 31 a1 bd 32 4f ca bd 35 74 ab 3d 5a a1 ab 3d
       -0.078707546 -0.098783866 0.08371774 0.08380385
000050 41 f8 f9 bd 26 aa 67 3c 2f 02 d8 3d 6e 9e b3 3c
       -0.12205554 0.014139688 0.105472915 0.021926131
000060 e4 b6 92 3d 1c 9a c0 3c ca 9a b2 3d c9 55 ae bc
       0.0716379 0.023510985 0.0872093 -0.02128114
000070 bd 91 27 3d 3b 99 1e 3d ee 5c b3 bd ec 39 a5 bd
       0.04091047 0.03872035 -0.08757959 -0.08067688
000080 78 58 d1 3d e3 c2 4f 3d d7 78 de bd 93 cf ca bd
       0.10221952 0.050722968 -0.10862892 -0.09902873
000090 dd 2c f2 3d 18 dd f3 3d 1b ea fa bd 4e 51 9f bd
       0.11824963 0.11907405 -0.12251683 -0.077791795
0000a0 52 a4 b2 3c aa ea 97 bd 93 08 72 bb a7 c5 a4 3c
       0.02180687 -0.074178055 -0.003693138 0.02011378
0000b0 d5 15 fa 3d b8 30 cb bc 0c ad 95 3d dc 9f a6 3c
       0.122111954 -0.024803504 0.07308397 0.020339899
0000c0 f3 9b 03 3e 98 60 a6 3c 01 48 db bd 52 3f 71 3d
       0.12852459 0.020309731 -0.10707093 0.058898278
0000d0 45 6c e0 bd a7 85 86 3b 12 37 a5 3d 32 84 8f 3d
       -0.10958151 0.004105288 0.080671445 0.07007636
0000e0 1d 4d cc 3d f4 85 26 3d 84 e8 c7 bd ce e9 a8 3d
       0.09975646 0.04065509 -0.09761146 0.0824772
0000f0 2b 3d 91 bd 97 1f 81 bd 90 84 9b 3d 6d 87 fc bd
       -0.07091745 -0.063048534 0.07593644 -0.12330518
000100 f8 39 23 bd f4 41 95 bc ad ca 02 3e 7a 62 5e bd
       -0.039850205 -0.018219925 0.12772627 -0.054293133
000110 20 4e 61 bd 54 9f 1a bd 09 2c 8e bd c4 4a c2 3b
       -0.055006146 -0.037749603 -0.06941993 0.005929323
000120 9e b6 c0 bd f1 d6 18 bd aa 3c fc 3d 44 26 74 3d
       -0.094098315 -0.03731436 0.12316258 0.059606805
000130 10 57 b8 3c 6d a0 9b bd 64 25 f8 3d 10 25 3d 3c
       0.022502452 -0.07598958 0.12116507 0.011544481
000140 8e 4f 1b 3d 88 b4 68 3d cd 5d 91 bd 5a ef 1b bd
       0.037917666 0.056812793 -0.07097969 -0.03807006
000150 b4 da 24 3d fd 7d ee 3d 69 43 cb 3d 2b 74 f7 3c
       0.040247634 0.11645124 0.09924967 0.03020676
000160 97 1d 9d 3c 23 5a 25 bd 66 7b 00 3d 3e 0b e0 bd
       0.019179149 -0.040369164 0.031367682 -0.10939644
000170 88 d9 60 3d ea 67 ba 3d 24 3e 25 bd a1 27 23 3d
       0.054894954 0.09101851 -0.040342465 0.039832715
000180 e0 30 b1 3c 48 9e d4 bd b9 b0 6c 3d ed 19 63 bd
       0.02162975 -0.10381752 0.057785723 -0.055444647
000190 53 bb 8f 3d 1d 73 ed 3d 6f 96 86 3d 63 c5 c5 bd
       0.07018151 0.11594222 0.06571662 -0.09656789
0001a0 bf 9a 41 bb 05 c0 68 3d 14 e5 21 bd f9 69 85 3c
       -0.0029541699 0.05682375 -0.039525107 0.016285883
0001b0 a3 f2 f8 3d 7b d6 92 bd 3a f0 87 bd 6d 5f 92 3d
       0.12155654 -0.07169815 -0.066376165 0.07147107
0001c0 6e de a5 bd be 2c c3 3c 63 50 e6 3d ec e1 a3 bd
       -0.08099066 0.023825046 0.11245801 -0.080020756
0001d0 04 67 a8 bd 0f 0a a0 3d 94 a6 d1 bd 4c d3 c7 bc
       -0.08222774 0.078144185 -0.102368504 -0.024392746
0001e0 03 95 0c bd b4 c7 df 3d b8 72 3f bc bf e5 0c 3d
       -0.034321796 0.10926762 -0.011685066 0.03439879
0001f0 44 6e c7 3d 74 14 11 3d 48 80 38 3c 7d 9c b9 bc
       0.097378284 0.035419896 0.011261053 -0.022657627
000200 22 8e e8 bd 97 cb 9d 3d 8e 65 dc bd 68 aa ce bd
       -0.11355235 0.07704847 -0.107615575 -0.10091096
000210 d8 bf 7d 3d b7 6d a9 bc a4 5b 9e bc 6f ad fc bd
       0.061950535 -0.020682199 -0.019330807 -0.12337767
000220 a4 0a 82 bd aa 35 0a bc 81 cb 55 bd d8 70 c5 3c
       -0.06349686 -0.008435646 -0.05219603 0.02410166
000230 14 a6 e0 3d 9d 38 14 bd 4f 79 f7 3d 9f 3f 37 bd
       0.10969177 -0.036186803 0.12083685 -0.04473841
000240 5e a1 99 3d 33 f1 6e bd b9 29 7b bc aa 40 5d 3a
       0.075014815 -0.058335494 -0.015329772 0.00084401167
000250 bf 17 9b 3d 2b c3 6c 3c bc 86 aa bd fd 13 f0 3c
       0.075728886 0.014450829 -0.0832648 0.029306406
000260 1b 00 fd bd 58 27 e1 bd 0e 89 b9 bd f1 20 67 3c
       -0.12353536 -0.10993832 -0.09059344 0.014106975
000270 86 10 74 3d 39 0e e2 3c e3 52 d9 3d bd 47 85 3d
       0.05958607 0.027594673 0.106115125 0.065078236
000280 8d 78 ea bd 52 6e b6 3d b6 9f 6d 3d bc f1 53 3d
       -0.114487745 0.08907761 0.05801364 0.051744208
000290 c5 2a 6e 3d 21 d9 2f bd 4f d1 b4 bd d5 b6 b4 bd
       0.058146257 -0.04293168 -0.08828985 -0.08823935
0002a0 d2 74 90 bd 10 c4 bf bd 30 56 de bc 7e 0a db 3d
       -0.07053532 -0.09363568 -0.027140707 0.106953606
0002b0 b3 19 f3 bd b6 7f 38 bd b5 88 4a 3d 43 cb a5 3d
       -0.11870136 -0.04504367 0.04944678 0.0809541
0002c0 de b8 09 3d 38 bd df 3c 9b e4 48 3c b4 b0 f6 3d
       0.03362357 0.027311906 0.012261535 0.12045422
0002d0 27 4a 4b bd e2 17 7a bd 58 ed 66 3d ea 85 fe bb
       -0.049631264 -0.061057933 0.056378692 -0.0077674286
0002e0 5b 72 b6 bd 11 84 a1 bd 5d 17 8f bd b2 21 eb 3c
       -0.0890853 -0.07886518 -0.06986878 0.02870259
0002f0 11 a7 e5 bd ca 9f 7a 3d 98 b5 b8 3d 3f 0b 07 be
       -0.11213506 0.061187543 0.09019011 -0.13187884
000300 fa b7 fa 3d 91 9c 04 bd d0 0c bf 3d eb e8 90 bc
       0.12242122 -0.032375876 0.09328616 -0.017689189
000310 a2 e3 fb 3d c8 14 bd 3c e1 85 02 3e b0 bb 34 bc
       0.12299277 0.023081198 0.12746383 -0.011031076
000320 09 45 ed bd 42 30 c7 3d ff b5 c3 bd 1e 56 14 3d
       -0.11585433 0.09726001 -0.095561974 0.03621494
000330 e8 a9 19 3d 4c 97 ad bd 52 53 2f bc b4 ae 02 3e
       0.03751555 -0.08476123 -0.010701017 0.12761956
000340 18 e1 7c 3d 85 bf be ba dd 57 5c 3d 87 37 d9 3c
       0.061738104 -0.0014552927 0.05379473 0.026515735
000350 d3 87 af bd 28 89 de bd f0 69 f0 3d a8 d8 0b bd
       -0.08570828 -0.10866004 0.11738956 -0.034142166
000360 dd 4d aa bd b4 29 9a bd bb 14 eb bd 4f 8c 3d bd
       -0.083156325 -0.075274855 -0.114785634 -0.046276387
000370 41 ac ba ba 2e 52 f7 bd 28 7a 0e 3d 62 17 d7 bc
       -0.001424201 -0.120762214 0.034784466 -0.026256267
000380 4d 0e d6 bc 09 40 75 3d 47 8f 00 be 63 5c bf 3d
       -0.026129866 0.05987552 -0.12554656 0.09343793
000390 7a b4 1a 3d d2 8f d1 3b 21 9a b1 3c dd 41 f7 bd
       0.037769772 0.0063953185 0.02167994 -0.12073109
0003a0 0d e0 fc 3d 7b 58 a2 bd ca d0 d9 3d ed b0 13 bd
       0.12347422 -0.079270326 0.106355265 -0.0360574
0003b0 ec 5b 32 3d 51 04 1a 3d 22 73 ac bc 04 b2 2a 3d
       0.043544695 0.037601773 -0.021050993 0.041673675
0003c0 f0 c4 6e bc 38 0d 07 3d 38 62 46 bd 68 cb d1 3d
       -0.014573321 0.03297159 -0.048433512 0.10243875
0003d0 59 99 19 3c a6 8b f2 bd 6a fd 6e bd e0 b3 3d bd
       0.00937494 -0.11843042 -0.058347143 -0.04631412
0003e0 4a 2a bd bd aa a7 f3 bd 80 83 7a 3d 9d ee 17 3c
       -0.092365816 -0.11897214 0.061160564 0.009273198
0003f0 96 85 c0 bd bf cb 97 bd a0 03 f5 3d 7b 4b cf 3d
       -0.094004795 -0.07411908 0.11963582 0.10121819

cond_trans.2.bias f4 [60]
000000 bc ad 80 bd e1 8c ec bd d8 df c3 bd cc e6 f1 3d
       -0.06283137 -0.11550308 -0.09564179 0.11811599
000010 84 11 14 3c 27 15 79 bc a0 65 83 3c 16 b3 60 3c
       0.009037379 -0.015202797 0.01603967 0.013714572
000020 18 05 4d 3b 7e b4 b7 3d f9 dc 44 3b 98 93 02 3e
       0.0031283554 0.08969973 0.0030038937 0.12751615
000030 00 51 d3 ba af 36 8b 3d 25 7b 93 bc 40 0c 9b 3c
       -0.0016122162 0.067975394 -0.018003056 0.01892674
000040 65 18 0b ba 99 5f eb 3d d5 7b f6 3d 59 93 8d bd
       -0.0005306064 0.11492843 0.12035338 -0.0691287
000050 10 d7 03 3c 9e 24 e7 bd f9 7c c4 bc c6 eb 03 be
       0.00804688 -0.11286281 -0.023985373 -0.12882909
000060 49 ea dd 3a 0b 04 b3 3c 82 8e b1 3d df f9 61 3d
       0.0016930784 0.021852514 0.08669759 0.055169936
000070 9d 88 d2 bd 21 cf 46 3d 12 85 f0 bd d6 15 c3 3d
       -0.10279963 0.048537377 -0.11744131 0.09525649
000080 d9 64 9d 3d a0 be f1 3c 90 7a a0 3d 49 04 ed 3d
       0.07685251 0.029509842 0.07835877 0.11573083
000090 fd 92 a8 3c fe 00 c3 3b f8 d6 6b 3d ec 2d f1 bd
       0.020577902 0.005951046 0.057578057 -0.11776337
0000a0 4d 3a 56 bd dc 91 fc ba 62 0c 6d 3d 8e 5f 06 be
       -0.052301694 -0.0019269544 0.057873137 -0.13122389
0000b0 46 e8 9e bc 78 77 07 be c2 1c b3 3d 4e 1f 90 bd
       -0.019397866 -0.13229167 0.087457195 -0.07037221
0000c0 34 58 fa bd b3 c5 ea bc 76 d5 3c 3d 04 18 37 bc
       -0.12223855 -0.028658723 0.04610201 -0.011175159
0000d0 fa 70 90 3c 50 17 12 3c f2 2a 9b 3d 9c a9 4d bd
       0.017631996 0.008916691 0.075765505 -0.05021058
0000e0 2e 75 29 3d c9 85 ca 3d 79 7f 82 3d c0 35 99 3d
       0.041371517 0.09888799 0.0637197 0.07480955

cond_trans.4.weight f4 [60, 60]
000000 36 33 6d bc 73 ab 42 bd 70 c9 f7 bd 8e d5 06 3d
       -0.014477542 -0.047526788 -0.12098968 0.032918505
000010 fc 59 8b bc fa d3 b5 bd 68 11 ab bc c1 9d f8 bd
       -0.017010681 -0.08878322 -0.020882323 -0.12139464
000020 20 58 09 3c 77 e3 ca bd 97 c5 df bd 84 10 16 bd
       0.008382827 -0.09906667 -0.10926359 -0.036636844
000030 20 d0 f4 bb 11 aa 4a 3d a7 9d ba 3d 5a bf 91 bb
       -0.0074710995 0.049478594 0.09112101 -0.0044478597
000040 5b 9e c7 3d 13 76 86 bd 99 1a 93 3d 84 c6 fc 3d
       0.09747001 -0.065654896 0.071828075 0.12342551
000050 aa 1f bf bd 56 df 93 bd b3 fe a3 3d 4e 7e 71 bd
       -0.09332211 -0.07220332 0.080075644 -0.058958344
000060 a4 e8 b2 3d 1c 60 01 be fa ea ad bd 0f b1 16 3b
       0.08735779 -0.12634319 -0.08492084 0.0022993719
000070 36 f0 8b 3c 09 36 b5 3d 93 b6 af bd c0 04 32 3c
       0.017082315 0.08848197 -0.08579745 0.01086539
000080 e4 71 47 bd 58 2c c1 3d a3 f2 b0 bd 07 a7 be 3d
       -0.0486926 0.09432286 -0.08640029 0.09309202
000090 25 39 1c 3c 38 33 01 3c 16 3c ca bd a0 87 51 bd
       0.009535109 0.007885747 -0.09874742 -0.051154733
0000a0 07 00 a8 3d c2 c4 e3 bd cc 10 8d 3c 89 93 81 bc
       0.0820313 -0.11121513 0.017219923 -0.01581742
0000b0 93 29 49 bd b0 f8 c8 bd 79 7d 45 bd cc ee d3 3d
       -0.049111914 -0.098130584 -0.048215363 0.10348281
0000c0 3c 6b 1e 3d 98 99 e6 3d b9 42 c5 3d 5e 26 28 3d
       0.038676485 0.112597644 0.09631867 0.041052215
0000d0 9b 7f 72 3d da 46 f9 3d e2 24 24 bc 81 52 e7 bd
       0.059203725 0.12171717 -0.010018559 -0.11295033
0000e0 2b 31 aa bd 9f da 87 3c b9 34 ae 3d 0a 3f 6c bc
       -0.08310159 0.016583739 0.0850615 -0.014419327
0000f0 eb d4 82 bd 96 63 e2 bd 80 46 e4 bd 8f 3c 91 3d
       -0.06388267 -0.11054151 -0.11146259 0.07091629
000100 ba 32 4a 3d a5 43 ba 3b af a9 c9 3d 4e 87 55 bd
       0.049364783 0.0056843334 0.09846818 -0.05213099
000110 53 cc 87 3d 95 19 a2 bd 64 bb cd 3d cf f4 18 bd
       0.066307686 -0.07915036 0.100455076 -0.037342843
000120 ef c4 d0 bd b4 54 2b bd b4 ec d1 bd 45 43 b3 bb
       -0.10193812 -0.041828826 -0.10250226 -0.0054706656
000130 78 8c 16 3c f8 a8 21 bd 6e f8 94 bd 25 cf d7 3c
       0.009188764 -0.03946778 -0.07273947 0.026343891
000140 6b ad a8 3d bc 41 b4 bd de 8c 76 bc b4 76 61 3d
       0.08236202 -0.088016 -0.015048234 0.055044845
000150 62 bc c8 3d 83 e6 5a bd f0 19 c6 3d af 9b 6f bd
       0.09801556 -0.05344249 0.09672916 -0.05849808
000160 94 20 16 bd 9d 46 b3 bc dc 27 90 bd d1 67 ce bc
       -0.036652163 -0.021884257 -0.070388526 -0.025195988
000170 7f 53 f9 3c fe c9 ce bd ce f5 70 bd 7f ae 18 3d
       0.030435322 -0.10097121 -0.058828168 0.037275787
000180 b1 cd 99 3d 37 de 4e 3c fa 86 2e 3d 62 13 a5 3d
       0.07509936 0.012626222 0.042609192 0.080603376
000190 d4 39 b4 3c d5 a6 ee bb 70 92 8d 3d ac 79 42 bc
       0.02200023 -0.0072830715 0.06912696 -0.011869829
0001a0 20 bc cf 3c c6 97 13 bc ec e9 15 3d 8b 85 c0 bc
       0.02535826 -0.009008354 0.03660004 -0.023501178
0001b0 03 aa 85 bd dc 54 e1 bd 37 cf 4f 3d 8e 6d 9e 3d
       -0.06526568 -0.11002514 0.050734725 0.0773574
0001c0 b5 4d a9 3d 04 3e 50 bd f8 f6 e4 bc 55 35 90 bd
       0.082667746 -0.050840393 -0.027949795 -0.07041422
0001d0 e9 c2 a4 3d e6 d3 8a bd 08 63 85 bd 46 f2 0c bd
       0.08044989 -0.06778698 -0.06513029 -0.034410737
0001e0 b8 4b b3 bd eb b8 07 3d 98 19 d7 3c 53 d8 27 3d
       -0.087546766 0.033135336 0.026257321 0.040977787
0001f0 97 fc d0 3d b1 03 e8 bd 61 c1 6e bc 20 07 af 3d
       0.10204428 -0.11328829 -0.014572472 0.08546281
000200 14 37 04 3d 28 2a 84 3d 10 1c 02 3e 31 c9 bb bd
       0.03227909 0.06453353 0.12706017 -0.091692336
000210 58 b2 df bc 0f 9e ec 3d e7 cb 02 3d b7 56 3f 3d
       -0.02730672 0.11553585 0.031932738 0.046713557
000220 8e a9 3c 3d b8 29 18 3d 2f c3 b1 3c 82 87 a9 bd
       0.046060137 0.03714916 0.021699516 -0.08277799
000230 73 6e 89 3d 54 5b 9a 3d c8 1f 16 bc bc 82 8b 3b
       0.0671052 0.07536951 -0.009162851 0.004257528
000240 9f 04 03 3e 77 4b aa bd 88 54 22 bc 44 be 7e 3d
       0.12794732 -0.08315175 -0.009907849 0.06219317
000250 31 3d 91 bc 80 8c e5 3c bc 6f 9c bd 45 94 b2 bc
       -0.017729374 0.028021097 -0.07638499 -0.021799216
000260 05 b1 bc bc e6 17 83 3d 5a 9a 84 3d ae 64 72 bd
       -0.023033628 0.06401043 0.06474753 -0.059178047
000270 00 bd ef bd de 52 dc 3d f6 95 7f 3d 3c 1d b9 3d
       -0.11705971 0.10757993 0.062398873 0.09038779
000280 3e 07 c4 bd 43 37 e8 bd 62 57 ad 3b ae 99 5c bd
       -0.09571694 -0.11338665 0.005289958 -0.053857498
000290 a2 16 b3 bd 04 77 9c 3d 06 f9 85 3c 33 ae a6 3c
       -0.08744551 0.07639888 0.016354095 0.020346737
0002a0 7e 30 e1 bd b2 18 84 3d d5 98 cc bd 4c d7 88 bc
       -0.10995577 0.06450023 -0.09990088 -0.016704224
0002b0 b9 48 a6 3d c8 19 85 3d a0 0c 3a bb 94 4d 1b 3d
       0.081193395 0.06499058 -0.0028388873 0.03791578
0002c0 29 d6 a2 bd 53 aa b5 bd 1e 0b 8b bc 8e a8 f6 bc
       -0.07951004 -0.088703774 -0.016973075 -0.03010967
0002d0 86 c1 bd bd 1e 2b 01 be de e6 b3 bd 6a f6 c4 3c
       -0.09265427 -0.12614104 -0.08784269 0.02404328
0002e0 89 c1 d9 bc d4 6e 00 be 61 ad 44 3c 0a e9 4c bd
       -0.026581543 -0.12542278 0.012004227 -0.05002693
0002f0 d6 69 e6 bd ac c2 b3 3d a4 74 e2 bd cf a6 a5 3d
       -0.11250655 0.08777365 -0.11057404 0.08088457
000300 50 bc 79 bc bd c4 dd bd e8 42 59 bd 59 d9 c1 3d
       -0.015242651 -0.108285405 -0.053042322 0.09465284
000310 b8 0d c4 bc b1 35 a8 3d dd af 4e 3d fa 0d 96 3d
       -0.023932323 0.08213366 0.050460685 0.073268846
000320 42 06 2e 3c 54 ac 0c 3d df 0f 82 3d ef f7 a5 bd
       0.010621609 0.034344032 0.063506834 -0.0810393
000330 60 c1 00 be 95 0d e9 3c e0 72 d4 bb 24 5a 82 3d
       -0.12573767 0.02844886 -0.0064834207 0.06364849
000340 8e 21 be 3d 03 57 6b 3d 60 bb ca bd 55 09 f6 bd
       0.09283744 0.057456028 -0.0989902 -0.12013499
000350 01 ad d1 bd d2 c9 25 3d 35 fb 9e bd 0c fc 8d bd
       -0.10238076 0.040475674 -0.07762758 -0.0693284
000360 a2 c5 79 bc ee c3 ac 3c b5 1e d7 bd a0 74 47 bc
       -0.015244873 0.02108952 -0.10503904 -0.012173802
000370 0a 49 bf 3d 86 b9 05 3d aa 88 ce 3c cb c5 e7 3d
       0.09340103 0.032647632 0.02521165 0.11317023
000380 3f dc 0c 3d ab 33 e6 3c 03 5e 28 3d 1c 39 d4 bd
       0.03438973 0.02810081 0.04110528 -0.10362455
000390 d4 fb 59 3d 36 eb 0c 3d 63 06 49 3c 05 39 18 bd
       0.053218678 0.034404002 0.012269589 -0.037163753
0003a0 5c 8b 17 3b 8a 8c e6 3d 3c fc 9d bc 78 57 14 bd
       0.0023123836 0.112572744 -0.019285314 -0.03621623
0003b0 a7 7e 95 3d 00 ae c2 3d 51 1d 9d 3d 3f 3d e1 3d
       0.07299548 0.09505844 0.07671607 0.1099801
0003c0 a8 a3 fa 3c dc 0b 04 be 48 c6 be 3c c2 3d 8c 3d
       0.030595616 -0.12895149 0.023287907 0.06847717
0003d0 80 5d 85 3a 10 8f 50 bc 25 ea 02 3e ec 76 ba bd
       0.001017496 -0.012729421 0.12784632 -0.09104714
0003e0 12 d7 f2 3d 53 8b bb bd 20 83 c0 3d 12 1a f0 3d
       0.11857428 -0.09157433 0.0940001 0.117237225
0003f0 c2 25 ac 3d 40 2f 8b 3b 2f 58 e9 bd 70 d5 f1 3d
       0.08405639 0.004247576 -0.11393773 0.11808288

cond_trans.4.bias f4 [60]
000000 a3 a0 b3 3d d4 b6 9f 3d 0e 80 3d bd cf 0a af 3d
       0.087708734 0.077985436 -0.0462647 0.085469835
000010 77 1d e6 bd 08 d3 7b bc 60 ee d6 bc e2 ae f6 ba
       -0.11236089 -0.015370138 -0.026236713 -0.001882043
000020 db 98 15 bd 45 91 97 3c a4 9b b6 bd 68 77 0e 3d
       -0.036522727 0.018501887 -0.08916405 0.034781843
000030 c7 a6 03 3e 79 48 71 bd 7d ab 05 bd 2b 14 46 bc
       0.1285659 -0.058907006 -0.032634247 -0.012089769
000040 47 e0 67 3c 2c 7b 66 bd 39 21 c5 3d 9d 0d ac bd
       0.014152593 -0.05626981 0.09625477 -0.08401034
000050 a0 a9 5d bd cb 65 01 be 92 cf fd bc 27 84 57 bb
       -0.054116845 -0.12636487 -0.030982766 -0.0032885165
000060 52 a5 d8 3d 8d f0 b8 bd a3 a8 74 3d 54 0b 91 bd
       0.10578407 -0.090302564 0.059731137 -0.07082239
000070 92 11 be bd db 8b ec 3c 6d dd 4a 3b 7b 2a a1 3d
       -0.09280695 0.028875282 0.0030954734 0.07869431
000080 e8 11 c5 bd 8c 17 dc bd 14 57 d6 bd 55 39 d6 3d
       -0.09622556 -0.10746679 -0.104658276 0.10460154
000090 16 44 ad 3c 5f 84 e5 3d 7b 18 48 bc 7c bd 81 bc
       0.02115063 0.112068884 -0.012212868 -0.015837424
0000a0 31 88 f4 bc 38 17 bf bd d4 d4 98 bd 9a 24 8d 3d
       -0.029850097 -0.093306005 -0.07462469 0.06891747
0000b0 9b ce 63 3b 21 3e c2 3c 43 69 94 bd ee f0 54 3c
       0.0034760598 0.023711266 -0.072466396 0.012996895
0000c0 60 90 a9 3d 7c ad 8d 3d 5e 14 2d bd 97 12 fc bd
       0.082794905 0.06917855 -0.04225575 -0.12308233
0000d0 1f 34 bd 3d 03 33 b6 3c a6 b5 79 3d 24 68 98 bd
       0.09238457 0.022241121 0.06096425 -0.07441738
0000e0 b7 dc ee 3d 25 b4 b0 bc 4b 4c a9 3d 83 73 97 3d
       0.11663192 -0.021570275 0.08266505 0.07395079

p_u.weight f4 [120, 60]
000000 2b bc 02 3e d5 ff ce bd 03 32 9b bd 5f 44 88 3d
       0.12767093 -0.1010739 -0.07577898 0.06653666
000010 f2 01 a3 bd c6 17 ca bd 80 a6 40 3d cf 76 72 bd
       -0.079593554 -0.09867816 0.047033787 -0.059195336
000020 08 24 07 3e 35 21 0b bd 64 78 d3 bd 4b 8c 7b bd
       0.13197339 -0.033967216 -0.10325697 -0.06141309
000030 21 bc 6c 3c 58 6b f5 3d 9a cd a7 3a 61 48 b6 bd
       0.01444915 0.11983365 0.0012802363 -0.08900524
000040 aa d4 e9 bd b9 c0 06 3e 07 33 51 bd 54 ce b6 3d
       -0.114175156 0.13159455 -0.051074054 0.08926073
000050 54 fb a9 bc 58 b4 3a 3d 49 ba 95 3b b9 f7 dd 3d
       -0.020749725 0.045582145 0.004569326 0.10838265
000060 42 c6 01 be cc ef 79 3d 99 eb c7 bd c6 53 06 bd
       -0.12673286 0.061019704 -0.097617336 -0.032794736
000070 58 26 e7 bd 2e a5 59 3d 0e 19 95 bd 78 c8 e2 3d
       -0.1128661 0.053136043 -0.072801694 0.11073393
000080 d5 18 88 bd 4e 86 d2 bd 55 22 e3 bd f2 72 88 3d
       -0.06645361 -0.10279523 -0.11090533 0.06662549
000090 e2 70 76 bd 84 be f6 3d 3f 0a cb 3d 24 43 a5 3d
       -0.060166247 0.12048057 0.09914064 0.08069447
0000a0 0e 8f 8a 3d f4 0a 79 bd 99 8e f4 bd cd 16 e2 3d
       0.06765567 -0.06080146 -0.11941261 0.11039505
0000b0 a6 3a a4 bd 9c d3 cd 3d 5e 78 ff bd 3c 0f d5 bc
       -0.08018999 0.10050127 -0.1247413 -0.02600824
0000c0 15 66 08 bd 43 f9 9f bd eb 26 83 3d f8 48 97 bc
       -0.033300478 -0.07811215 0.064039074 -0.018467411
0000d0 33 3a bb bc 65 76 ed bd d2 df d3 bc 5b 0a 81 bd
       -0.0228549 -0.115948476 -0.025863562 -0.06300803
0000e0 20 8b 3a ba 95 6d 0a 3e ed d8 02 be ef 4c 9b bd
       -0.0007116068 0.13518365 -0.12778063 -0.07583033
0000f0 e4 aa ec 3c e7 07 b3 bd d2 1b 29 bd 9d 23 8d 3b
       0.02889008 -0.087417416 -0.041286297 0.004307224
000100 80 ee 5a bb 66 7c 36 bc 80 7f a9 3a 2a 79 db 3c
       -0.0033406317 -0.011138057 0.0012931675 0.026791174
000110 ba 42 8e bd e2 63 87 3d 0e fb 8d 3d d9 d2 b4 bd
       -0.06946321 0.06610848 0.069326505 -0.088292785
000120 e9 17 ab 3d 4b 32 9b bd 13 c3 be bc 73 fd ea bd
       0.0835417 -0.07577952 -0.023286378 -0.11474123
000130 a8 f5 cd bc 37 01 96 bc 9e 9f e0 bd 35 cd a9 bd
       -0.025141552 -0.018311126 -0.109679446 -0.08291093
000140 98 c0 08 bc 7a 4d ed 3d cf 6f aa bd 08 ef 98 3d
       -0.008346699 0.11587043 -0.08322107 0.074674666
000150 7a 38 ab bc 48 65 18 3d ed be 73 bc 47 3a ec 3d
       -0.020900954 0.037205964 -0.014877063 0.11534553
000160 3e 65 e4 bd 75 5e 04 3d 1f f5 de bd cd 77 e5 3a
       -0.11152123 0.032316644 -0.10886597 0.0017507017
000170 ae a5 a3 bd 52 e8 7e 3d 50 35 9f bc 6d 08 ce 3d
       -0.07990585 0.062233277 -0.019434601 0.10060201
000180 e5 ed 6d bd ac e1 b5 3d ff a7 25 3d 23 a2 36 bd
       -0.058088202 0.08880934 0.040443417 -0.04458822
000190 e2 e2 e6 3c 54 42 99 3d 00 4b e4 bc e9 94 af 3d
       0.028184358 0.07483354 -0.027867794 0.08573324
0001a0 88 65 8d bc 40 d2 b9 3d dc c0 f6 3d c3 95 07 3d
       -0.017260328 0.09073305 0.12048504 0.03310181
0001b0 c4 ca d2 3d 04 75 93 3d b6 31 19 bb b6 7c eb 3d
       0.10292581 0.07200053 -0.0023375577 0.11498396
0001c0 14 4a ba bd 57 c8 40 3d c6 f0 fc bc ec 5e bb bd
       -0.090961605 0.04706606 -0.030876528 -0.09148964
0001d0 44 d4 8d bd 4b 73 d5 bd d6 a7 c1 3a ac 0b bb bd
       -0.06925252 -0.10422381 0.001477475 -0.091330856
0001e0 df 9a 56 bd 39 5a f3 bd bf 37 0f 3c 96 94 87 bd
       -0.05239379 -0.11882443 0.008741318 -0.066201374
0001f0 c0 61 ad bd 43 f9 85 bd 4a b6 48 bd 15 79 aa bd
       -0.0846591 -0.065416835 -0.04900197 -0.08323876
000200 05 09 ad bd a9 24 b9 bd ac ad ea 3d 57 9f ba 3c
       -0.08448986 -0.090401955 0.114589065 0.022781057
000210 5f 88 58 3d 38 7a f0 bd d3 c0 22 3d 02 76 14 bd
       0.05286443 -0.117420614 0.039734673 -0.036245354
000220 2e 28 93 bd fb 21 24 bc e0 70 58 3d d3 c1 cc 3b
       -0.07185398 -0.010017867 0.05284202 0.0062486916
000230 5a 7e f5 3d 94 03 f3 bd 91 cf da bd 6b 1e 95 3c
       0.1198699 -0.11865917 -0.106841214 0.018202981
000240 41 b0 32 bd 50 6d 52 3c 9b d4 0b be 5b 23 99 bd
       -0.04362512 0.012843445 -0.13655321 -0.07477447
000250 ad f1 0c bc 7c d3 9c 3d fa 1d 01 be da 01 e4 3c
       -0.008602542 0.07657525 -0.12609091 0.027832914
000260 3c 0a 9b bc 69 d2 94 3d b8 a3 84 3c 8f 7a 9d 3d
       -0.018925779 0.07266695 0.016191348 0.07689392
000270 ca 4e 87 3d 7f 74 38 3d 52 5d 03 3c 25 0a b5 3d
       0.06606825 0.045032974 0.008017855 0.088398255
000280 b4 95 07 be 9a e8 02 be 70 74 b7 bc 95 13 b6 bd
       -0.13240701 -0.12784043 -0.022394389 -0.08890454
000290 55 3f f4 3d 19 d1 2a bd d1 b7 c7 3a 39 8b 60 bd
       0.11926142 -0.041703317 0.0015237277 -0.054820273
0002a0 fb da 21 bc f7 bb 53 3d a4 cd bd bd e0 a7 c9 3d
       -0.009878869 0.05169293 -0.092677385 0.09846473
0002b0 df 79 a6 3d fb 2c cc ba 36 3e f7 bd 29 04 80 3d
       0.08128714 -0.001557737 -0.12072413 0.062507935
0002c0 17 4e 37 bc 94 ab bc bd 26 35 aa 3d b4 34 38 bd
       -0.011188052 -0.092124134 0.083109185 -0.044972137
0002d0 46 3a 39 3d cb 54 ce bd ba 09 de 3d 48 fc fc 3d
       0.04522159 -0.10074767 0.10841699 0.12352806
0002e0 a8 b1 66 3d a6 46 43 bd 06 df 95 bd b2 f7 bd bc
       0.05632177 -0.047674797 -0.07317929 -0.0231894
0002f0 45 df 65 3d c9 35 24 bd 18 66 ad bc bd 0b d8 3d
       0.05612113 -0.040090356 -0.021166846 0.10549114
000300 50 70 92 3d 4f bf d4 bd 8b 93 73 3d 60 77 52 bd
       0.07150328 -0.10388052 0.05946688 -0.051383376
000310 1f ad 21 3d a2 ec ae 3d 61 28 00 bd dc 90 28 3c
       0.03947174 0.08541228 -0.03128851 0.010288443
000320 84 75 a3 3d d0 12 60 3c 7f 24 e6 3d 46 ea d2 bd
       0.07981399 0.01367636 0.1123743 -0.1029859
000330 74 7c ef bd 88 e7 69 bd 6a 28 5d bd ac 9c 08 3e
       -0.116936594 -0.05710557 -0.05399362 0.13341016
000340 f7 6d 1a 3d 81 1c 55 3a c8 b3 4c 3d e5 24 95 3d
       0.037702527 0.00081295526 0.04997614 0.07282428
000350 ea 6b a6 3d f1 42 10 3c 39 22 ff bd 0c e2 ed 3d
       0.08126052 0.008805023 -0.12457699 0.11615381
000360 e7 8e 87 3d ee ee d7 bd 02 e5 04 3e 34 d1 99 3d
       0.06619053 -0.10543619 0.12977985 0.075106055
000370 27 8f 7c bc f2 be 9b bd 80 42 87 bc f1 98 e5 bd
       -0.01541499 -0.07604779 -0.016511202 -0.11210812
000380 ab cd a5 3c 11 2f dc 3d 01 0e 00 3d c1 73 5a 3d
       0.020239672 0.10751165 0.031263355 0.053333048
000390 87 0d 01 3d c2 e0 0b bb 68 de 29 bd 1e a2 f6 bd
       0.03150704 -0.0021343683 -0.04147187 -0.1204264
0003a0 fd d7 5e 3d 80 00 d2 3d 35 02 b2 bb 2f 9b a3 3d
       0.0544052 0.102540016 -0.005432392 0.07988583
0003b0 d7 74 10 bd 60 11 f9 bc 7c 8c 0d 3e 34 92 3d bd
       -0.035267677 -0.030403793 0.13823122 -0.04628201
0003c0 08 35 aa bd 60 40 db 3d 9a 56 cf 3d 40 31 e0 bd
       -0.08310896 0.10705638 0.1012394 -0.10946894
0003d0 e3 f7 c4 bd 34 09 c6 3d a0 1f 14 3c bc 92 a4 3d
       -0.09617593 0.09669724 0.009040743 0.080358
0003e0 93 eb e2 bd 52 40 77 bd 2c 9e ce bd 6d 53 9c 3d
       -0.110800885 -0.060364075 -0.10088763 0.076331
0003f0 35 00 c0 3d 63 20 2d 3d cc 95 85 3d 84 fd 44 3d
       0.093750395 0.042267215 0.06522712 0.048093334

p_u.bias f4 [120]
000000 1e 24 7f 3d 1b ec bc 3d a4 c7 5f bb c2 bd 87 bd
       0.062290303 0.09224721 -0.0034146095 -0.0662799
000010 a6 ea 0c 3d 6c af b3 bb 97 64 ac bd 8d 0d 0f bd
       0.034403466 -0.0054835584 -0.084176235 -0.034925032
000020 9c fc c4 bd 90 47 1f bd 3d 61 d3 3d 60 9c 97 3d
       -0.09618494 -0.038886607 0.10321281 0.07402873
000030 25 70 12 3c 3d 1c 04 bd 38 ce 26 bd bb 0a d8 bd
       0.00893787 -0.032253493 -0.04072401 -0.10548922
000040 b7 52 e5 3d 0e 64 b6 3d 16 20 a2 3c 21 fe e4 bd
       0.11197417 0.08905803 0.01979069 -0.11181284
000050 8d 90 cc 3c ac d3 e4 bb 3d 37 d1 bc f3 3a 41 bd
       0.024971271 -0.006983241 -0.025539035 -0.04717536
000060 0f 8b b0 bd a1 44 72 3d 89 0e a7 3d 52 32 df bd
       -0.08620273 0.05914748 0.08157069 -0.1089827
000070 9b af b9 3d 36 ec 0b 3b a0 84 ef bd 6f de 04 3c
       0.09066697 0.002135051 -0.11695218 0.008109673
000080 2f 8f 73 3d fe c0 b2 bd 90 d3 c9 bd 60 43 78 bc
       0.059462722 -0.087282166 -0.098548055 -0.015152782
000090 36 cd ae bd ca be b2 bd 93 35 19 3d 7b 05 d2 bd
       -0.08535235 -0.087277964 0.037404608 -0.102549516
0000a0 64 55 ca 3d d5 bb 9d bd 22 c3 db 3d 48 4a b1 3d
       0.09879568 -0.07701842 0.10730578 0.08656746
0000b0 11 d4 f2 3c c1 26 ef bd 98 03 ca bd 95 a2 58 3c
       0.029642137 -0.116773136 -0.09863967 0.013222356
0000c0 cc 61 0a be ea 57 a0 3d a0 03 d8 bd d0 73 be bd
       -0.13513869 0.07829268 -0.105475664 -0.09299433
0000d0 cc 09 9c bd 3b e6 9f bd 52 3f ff 3d fb 01 e7 bd
       -0.07619056 -0.07807585 0.12463249 -0.112796746
0000e0 3f 2b 07 3d 78 55 e0 3d a3 bd 93 bd 52 53 ee 3c
       0.033000227 0.10953802 -0.07213905 0.029092465
0000f0 26 8a d1 bd f5 23 95 bd 7d 80 af bd bb c2 07 bb
       -0.10231428 -0.07282249 -0.08569429 -0.0020715434
000100 0e 46 a7 3d 05 69 dc bd b3 66 aa bd 8b 2e d0 bd
       0.08167659 -0.107622184 -0.083203696 -0.10165127
000110 20 b4 a3 ba 33 05 61 3c 3e 95 43 3c 51 01 55 bd
       -0.0012489595 0.01373415 0.011937438 -0.05200321
000120 98 6e 6a bd dc 4a 18 3d 3f 93 e1 bd ec 29 f4 3d
       -0.057234377 0.037180766 -0.11014413 0.119220585
000130 15 12 52 3d 7e 22 07 be ac a8 51 bd 38 8a 87 bd
       0.051286776 -0.13196751 -0.05118625 -0.0661816
000140 e0 2e 45 3d 58 e8 01 be ef 52 c2 3d ac 80 8e 3d
       0.048140407 -0.12686288 0.094884746 0.06958136
000150 e2 00 9d bd 9c 8b 5d bd 84 39 9b bd 2d 1d a5 bd
       -0.07666184 -0.05408822 -0.075793296 -0.080622055
000160 48 a4 ef bd 46 f4 05 3d 69 4c e9 3c bb 04 0c be
       -0.11701256 0.03270366 0.028478818 -0.1367368
000170 60 50 07 be 05 dd 49 bc f8 5f a8 bc ec 73 23 bd
       -0.13214254 -0.012320762 -0.020553574 -0.039905474
000180 3f 65 e9 3d 86 a5 a8 bd d7 9b 86 bd ba 84 a2 bc
       0.11396264 -0.08234696 -0.06572693 -0.01983868
000190 c0 85 84 bd 43 bb 1e bb 32 51 93 bc d4 85 bb 3d
       -0.06470823 -0.0024220503 -0.017983053 0.09156385
0001a0 9f 59 0b bd ca ca 85 bd a7 4c ec bd ae 98 ee bd
       -0.034021016 -0.065328196 -0.11538058 -0.11650215
0001b0 db 97 66 bd a9 04 65 3d de 8b 27 bc ad 2c 9e bc
       -0.056297164 0.055912647 -0.010226218 -0.019308412
0001c0 0f 97 84 3d 8e 61 4e 3d e6 5b 78 bd 77 2a 2f bc
       0.06474125 0.050386004 -0.060634516 -0.010691277
0001d0 e2 e5 98 3c ee 5b a7 bd 66 49 ae bc 2a 53 e6 3c
       0.018664304 -0.08171831 -0.021275233 0.028115828

q_z.weight f4 [120, 60]
000000 21 fe 2d bd b8 81 27 3d 8f 2f 53 bd 11 64 00 3e
       -0.042478684 0.040895194 -0.051559027 0.12538172
000010 c9 7c ef bd 54 90 f6 3d 80 77 57 bb 9c 9b 5c 3d
       -0.11693723 0.12039247 -0.0032877624 0.05385934
000020 2d fb 50 bd 44 75 e7 3d b0 69 00 bd ed 85 a1 bd
       -0.05102079 0.113016635 -0.03135079 -0.078868724
000030 63 35 c2 3d 27 04 12 bc 94 97 d6 bb c0 de a0 3d
       0.09482839 -0.008912123 -0.0065488312 0.07854986
000040 88 f7 05 3d da d3 d2 3d fb 97 1b 3d 27 46 dc 3d
       0.032706767 0.10294314 0.037986737 0.10755568
000050 6e d1 15 bd a0 47 19 3c 0e b6 98 bd d0 76 ec 3d
       -0.03657668 0.009355456 -0.07456599 0.11546099
000060 ec 5c f3 bd b6 71 d9 bd 2a 4f c4 3b 04 bd f3 bd
       -0.11882958 -0.10617392 0.0059908824 -0.11901286
000070 c9 81 ec ba f4 b9 66 bd f6 da 07 3e 13 84 be bd
       -0.001804405 -0.056329682 0.1326712 -0.09302535
000080 f4 0d 7b 3d d1 ec f2 3c bc 12 a5 bd e9 85 0d 3e
       0.061292604 0.029653938 -0.08060214 0.13820614
000090 96 99 5d 3d 65 6d e7 3d ee 75 d7 bd 1d 19 bb bd
       0.05410155 0.11300162 -0.1052054 -0.09135649
0000a0 5f 42 c8 3d a4 8c d5 bc 08 b9 f2 bd eb c0 6c 3d
       0.09778284 -0.02606804 -0.11851698 0.05780117
0000b0 22 b2 c4 3d 2f 95 64 bc 5b 26 be 3d a4 db 5a bb
       0.09604289 -0.013951584 0.092846595 -0.0033395076
0000c0 88 9f 8d 3b 45 3e 22 bd 7c d6 9c bd a8 b8 e6 bd
       0.004321996 -0.039610166 -0.07658097 -0.11265689
0000d0 97 8b 50 3c fb 76 e8 bd 61 b0 e9 3c f0 78 23 bd
       0.012728593 -0.11350819 0.028526487 -0.039910257
0000e0 89 a6 8d bd d1 2d 1d bc 25 5e b3 bd 8a a7 b0 bd
       -0.0691653 -0.009593443 -0.08758191 -0.086257055
0000f0 fd fa 94 3d 18 2e b2 bc 78 00 a5 3c 58 5c 33 3c
       0.07274435 -0.021750495 0.020141825 0.010947309
000100 98 ce ca 3c dc 6e fd 3d 56 90 b4 3d b8 86 ca 3d
       0.024756715 0.123746604 0.088165924 0.09888977
000110 66 82 f7 3d 53 a6 a1 3c 00 73 96 3c 65 d2 be 3b
       0.120854184 0.01973263 0.018365383 0.005823421
000120 46 b8 98 bd ff a9 7e bc 2a c2 a9 bb 04 fd ce bd
       -0.07457022 -0.01554346 -0.005180617 -0.10106853
000130 1c 80 4a bd a4 bb 74 3d f6 c6 4f bb 7e ab a9 3d
       -0.04943858 0.05974926 -0.0031704283 0.08284663
000140 38 b2 2c bc 18 6e 92 3d ac 1c 70 bd ba 57 44 bd
       -0.010540538 0.07149905 -0.058621094 -0.047935225
000150 c3 e6 b9 bd 00 ce 14 3b 3b 54 dc bd ac 09 cb 3d
       -0.090772174 0.0022705793 -0.10758253 0.09913954
000160 17 58 b4 bd 99 6b d4 bd 2e 27 ec bc 55 9b ea 3b
       -0.08805864 -0.10372085 -0.028827276 0.0071596303
000170 e5 bb 86 bd 20 06 b5 bd 5c 72 e1 bd 53 ab 3c 3d
       -0.06578807 -0.08839059 -0.110081404 0.046061825
000180 f2 05 03 be 3b 7e 92 bc 74 82 98 3d a8 a3 7b bd
       -0.12795237 -0.017882457 0.07446757 -0.06143537
000190 01 6a b6 bd 2c fe 4e bd d0 2b ff 3c 1f cf cb bd
       -0.089069374 -0.050535366 0.031148821 -0.099516146
0001a0 a6 92 04 3c d1 c0 9e 3d 31 ef 57 3d e8 37 c0 bc
       0.008091604 0.077516206 0.052718345 -0.023464158
0001b0 38 ca c3 3d 73 4e b1 bc ef 2d 28 bd 00 8d 7f bb
       0.095600545 -0.021643853 -0.04105943 -0.0038993955
0001c0 9e 82 1c 3d e9 79 26 3d dd 4b ff bd c3 8d 92 bd
       0.038210504 0.040643606 -0.12465642 -0.07155945
0001d0 fa bc 8a 3d 07 70 38 bd 0d 6f b9 3d 89 3c 02 be
       0.06774326 -0.045028713 0.090543844 -0.12718405
0001e0 73 4a f0 3d 1d 0c 10 bd fb 24 8a bd e3 77 f7 3d
       0.1173295 -0.035167802 -0.06745335 0.120834135
0001f0 9c d7 c3 3d bc 49 c5 bd 16 1a 83 3d 0e d9 d6 3c
       0.095626086 -0.09633204 0.0640146 0.026226547
000200 b7 25 4b bc 08 77 81 bd c0 a8 5d bb ad c1 eb 3a
       -0.012399129 -0.063215315 -0.0033822507 0.0017986797
000210 3d 3a 0f 3d c0 52 f2 3c 39 7d 85 bd 86 81 6e 3c
       0.03496765 0.029580474 -0.06518025 0.014557248
000220 48 7a cb bd 3d aa ff 3c 98 bb fb 3d af 66 59 bd
       -0.09935433 0.031209106 0.1229164 -0.053076442
000230 5e 61 c8 3d 40 1b d9 3c 2e bc 50 3d 4d 03 97 3d
       0.09784196 0.026502252 0.050960712 0.073736764
000240 ed a4 88 3d 64 b5 c2 3d d4 c6 1e bd 0e d3 08 3d
       0.06672082 0.09507254 -0.038763836 0.033404402
000250 45 f9 ad bd a8 cf 29 3d 02 f0 00 be 7c 6d b4 3d
       -0.0849481 0.041457802 -0.12591556 0.08809945
000260 f4 40 92 3d f1 a7 6d bd dc 6e f1 3d 48 d8 9b 3c
       0.07141295 -0.05802149 0.11788723 0.01902403
000270 d8 09 86 bd df 21 cd 3d 8e 67 44 3d eb dc c1 bd
       -0.06544846 0.10016226 0.04795032 -0.09465965
000280 23 a0 b1 3d 00 4c f7 ba bc 1d 70 3d dd 2c bc bc
       0.08673122 -0.0018867254 0.058622107 -0.022970611
000290 16 35 64 3c a8 05 38 bc ea 5a 14 3d 00 66 fc bc
       0.013928672 -0.011231817 0.036219515 -0.030810356
0002a0 ef fc ab 3d 6e 15 bb bd 1f e9 0b 3d 48 02 ef 3c
       0.08397853 -0.09134947 0.03415787 0.029175892
0002b0 25 bc db 3d 71 e3 d8 3d cb 85 82 3d 39 7f d9 bd
       0.10729245 0.10590256 0.06373175 -0.10619969
0002c0 cd 5e a9 3d ee cc c6 3d 2d 79 de bd 1a 51 dd bc
       0.08270035 0.09707056 -0.10862956 -0.027016211
0002d0 43 78 c8 bd 68 e8 e3 3d 44 8b c5 3d cb e9 09 3a
       -0.09788563 0.11128312 0.096457034 0.0005260973
0002e0 b8 71 2a 3d d9 c0 f6 3c 90 38 b2 3c e0 51 bb 3d
       0.041612357 0.030121254 0.021755487 0.09146476
0002f0 ac 1e 45 3d 75 a4 ec 3d 4c 1e 5c 3d da 47 3e ba
       0.048124954 0.11554805 0.05373983 -0.00072586315
000300 5b f3 c4 3c b2 fd 1a 3c cb 08 92 3d d6 ca ba 3c
       0.024041822 0.0094599 0.071305834 0.022801798
000310 18 91 8f bb 6a 75 ad 3d 8a 36 fc bd 6d 28 2a 3d
       -0.00438131 0.084696606 -0.1231509 0.04154246
000320 b4 5f 08 3d 00 fe 83 3b 96 76 94 3d 5f c8 7c bb
       0.033294395 0.004028082 0.07249181 -0.003857158
000330 da 37 a9 3c 67 08 a8 bd e0 d0 bc 3d c0 91 b0 3d
       0.020656515 -0.082047276 0.09219527 0.086215496
000340 cf f7 ad 3d 9c ee f1 3c 13 cd 01 3e 5d 98 c6 3d
       0.08494531 0.029532723 0.12675886 0.0969703
000350 d0 f6 3c 3d 82 75 a9 3d e0 0a cf 3c c6 e2 ed bc
       0.046133816 0.08274366 0.02527374 -0.029038798
000360 58 f1 95 bd 1b 61 0d bd 61 52 b4 bd 8e 06 85 bc
       -0.07321423 -0.034516435 -0.08804775 -0.016238477
000370 01 27 fe bd e6 7c 18 bd 42 be dc 3d 0b 61 5b bd
       -0.12409783 -0.037228487 0.10778476 -0.053559344
000380 91 59 d0 3c 11 f7 15 3d 9b 0a f1 bc cc 06 9c bd
       0.025433334 0.036612574 -0.029424002 -0.07618484
000390 7a e3 80 bd 18 60 b6 3d 64 f9 79 3d 94 88 e5 bd
       -0.06293388 0.08905047 0.061028853 -0.11207691
0003a0 31 42 ec 3c 90 4f dc bd b9 b4 dc bd 35 39 3a 3d
       0.028840156 -0.10757363 -0.107766576 0.045464713
0003b0 23 55 e4 bb 8f 77 aa bc 73 39 87 bd c9 8f 00 bd
       -0.006968157 -0.020808963 -0.066027544 -0.031387124
0003c0 f3 36 01 be eb 72 bd 3d 78 35 a2 bd 1d cc 12 3d
       -0.12618618 0.092504345 -0.079203546 0.03583919
0003d0 80 47 c7 3c 05 12 f9 3d c2 50 be bd 38 98 08 bd
       0.024326086 0.1216164 -0.09292747 -0.033348292
0003e0 c8 0a e9 bd 3a 2f 13 bd 00 a0 0a bb 5e de 98 3d
       -0.113790095 -0.03593371 -0.0021152496 0.07464288
0003f0 48 80 f4 3d 10 1d 8a bc ca 63 e4 bb 8e 80 78 bd
       0.1193853 -0.016859561 -0.0069699036 -0.060669474

q_z.bias f4 [120]
000000 1a 0d bc bd fd 09 8c 3d 2f ff 64 bd e2 25 09 3d
       -0.091821864 0.068378426 -0.055907425 0.033483393
000010 cd af 77 bd 05 88 6e bc 49 d6 a5 bd 34 a4 5b 3c
       -0.06047039 -0.014558797 -0.08097512 0.013405848
000020 b4 cc f3 3d 25 4d f1 bd fa 07 08 3d fc e5 6f bd
       0.119042784 -0.11782292 0.033210732 -0.05856894
000030 7e 0a fc 3d 4c 4e f6 bc e4 ed c5 3c ff 77 86 3d
       0.12306689 -0.030066632 0.024161287 0.06565856
000040 07 92 82 bd 34 0d 14 bd 30 3d 40 3d ee 6d a2 3d
       -0.06375509 -0.036145404 0.046933353 0.07931124
000050 ad 88 e9 3b 7d 16 08 bc 30 c2 09 be a6 9a 01 be
       0.0071268887 -0.008306143 -0.13452983 -0.1265665
000060 a7 92 95 3d b6 38 ea 3d c9 91 c8 3d 69 cc c9 3c
       0.07303362 0.11436598 0.09793431 0.024633603
000070 4d 37 28 3d c2 38 06 3e ab 87 35 3c ab 8e ce bd
       0.041068364 0.13107589 0.011079709 -0.100858055
000080 81 67 c9 bd b4 26 1f 3d 34 37 9e 3d 0e 1a 7e 3d
       -0.09834195 0.03885527 0.07725373 0.062036566
000090 30 a6 aa bd 4a 5e ee 3d cd 70 bb 3d 1b 34 84 bc
       -0.08332479 0.11639078 0.091523744 -0.016138127
0000a0 14 63 50 bd 4b 6c 8d 3d ce d5 f0 3d b9 c1 d3 3d
       -0.05087574 0.06905421 0.1175953 0.10339684
0000b0 11 c7 38 3d d7 fa c9 bd d1 ba 6d bd bf 85 bc 3d
       0.04511172 -0.09862297 -0.05803949 0.092051975
0000c0 9f 37 ed 3d 12 63 89 bd 95 35 df bb a3 e9 75 3c
       0.115828745 -0.06708349 -0.0068118074 0.015009317
0000d0 9e 28 04 be 37 b2 b0 bd 98 ab ae 3d d0 83 0c be
       -0.12906119 -0.08627742 0.08528823 -0.13722157
0000e0 15 7e ce bd 94 3e e0 bc 53 e6 9e 3d e5 fa bf 3d
       -0.10082642 -0.02737359 0.077587746 0.09374026
0000f0 62 59 c4 3d fe a3 93 bd 12 8c 47 bd 06 ca 4a bd
       0.09587361 -0.072090134 -0.048717566 -0.04950907
000100 f8 7f bf bd f1 09 e8 bd c5 cc b8 bd 9c 09 83 bd
       -0.0935058 -0.11330021 -0.09023432 -0.06398317
000110 37 be 78 3b c0 85 ac bd 45 ae fe bd 69 24 26 bd
       0.0037955174 -0.08423948 -0.12435583 -0.040562067
000120 fb 6b 7f 3d 75 2e 9d bd 9c f9 18 3d ec ba a3 bc
       0.062358838 -0.076748766 0.03734742 -0.019986592
000130 ee 0f 91 bd ea 00 90 bd de 10 0d bb 08 86 0f 3d
       -0.070831165 -0.07031424 -0.0021524946 0.03503993
000140 c5 14 f2 3d 6e fa 0b 3d 02 92 ff bc 18 bd f4 bc
       0.11820368 0.034174375 -0.031197552 -0.029875323
000150 77 7b b8 bc 74 79 15 3b 42 ca e1 3d 79 18 b4 bd
       -0.02251981 0.0022807987 0.11024906 -0.0879373
000160 ba 14 fa bd a1 37 53 bd 25 b0 80 3d e4 1a b3 bd
       -0.122109845 -0.051566724 0.06283597 -0.08745363
000170 55 14 c7 bd 1f ed ee 3d f4 ae 05 3d 64 0c 5b bd
       -0.09720675 0.11666321 0.03263755 -0.053478613
000180 29 7f d7 3d ad 3b 5f bd 2b f6 e8 3d 04 69 11 ba
       0.10522301 -0.05450027 0.11375078 -0.00055469596
000190 1a 2a dd 3d 94 34 d3 3b 21 68 08 be f8 07 01 be
       0.10799046 0.006445477 -0.13320972 -0.12600696
0001a0 dc df a2 bb 30 94 fa bd ce 0c 78 bc 36 85 be 3d
       -0.004970534 -0.12235296 -0.015139772 0.09302752
0001b0 26 fd 2e bd 7b 64 83 3d 85 14 88 bd cb 8d 07 be
       -0.04272189 0.064156495 -0.06644539 -0.13237683
0001c0 ac 2a e0 bc f9 40 04 be 46 45 64 bd d0 31 32 bd
       -0.027364098 -0.1291541 -0.055730127 -0.043504536
0001d0 81 9e 47 bd 90 f3 15 3d 23 47 b6 bd d2 18 de bd
       -0.048735145 0.036609232 -0.08900287 -0.10844578
