output/custom/encoder_pretrain_100_3.467182159423828.pt (torch, 76103 bytes, 25 tensors)

rnn.weight_ih_l0 f4 [60, 1]
0	0xbd5d781c	-0.054069623
1	0xbe57a809	-0.21060194
2	0x3c801b7d	0.015638107
3	0xbdc80471	-0.09766472
4	0x3da280cf	0.079347245
5	0x3dd65bd6	0.10466735
6	0xbe317d8c	-0.17333049
7	0xbe0dfee4	-0.13866764
8	0x3db5090a	0.08839615
9	0xbdfe4cb2	-0.12416972
10	0x3cbf40f6	0.023346405
11	0x3e524072	0.20532396
12	0xbe4109c0	-0.18851376
13	0xbd979f02	-0.07403375
14	0xbe5e705d	-0.2172255
15	0xbd3aa339	-0.045565818
16	0x3dd35699	0.103192516
17	0xbd860d5a	-0.06545515
18	0xbd586c77	-0.052837815
19	0xbc809590	-0.015696317
20	0xbdcd9e64	-0.10039976
21	0xbda9b126	-0.082857415
22	0x3e26468c	0.16237849
23	0xbe456f0a	-0.1928064
24	0x3d39c6c1	0.045355562
25	0x3e166f7e	0.14690968
26	0x3d8ffdbe	0.07030819
27	0xbe197a25	-0.14988
28	0xbd0b4c5f	-0.03400838
29	0xbe2d9402	-0.16950992
30	0x3dabddb1	0.08391894
31	0xbe0b5f8b	-0.13610666
32	0x3b1034b0	0.002200406
33	0x3dc8bd00	0.09801674
34	0xbe314fec	-0.17315644
35	0x3e4a4689	0.1975347
36	0x3d2e1609	0.042501483
37	0xbdb887dc	-0.09010288
38	0x3d74dd32	0.05978126
39	0xbdd00934	-0.10158005
40	0x3d213fd6	0.03936752
41	0x3e290912	0.16507366
42	0x3d57cc5b	0.052685123
43	0xbdbbf82f	-0.09178197
44	0xbd97858f	-0.07398521
45	0x3e03107f	0.12799262
46	0x3d32016b	0.043458384
47	0xbbecf9d2	-0.0072319293
48	0xbe28616f	-0.16443418
49	0xbdae0a98	-0.08498114
50	0xbcbddae8	-0.023175672
51	0x3cbad7bf	0.022807954
52	0xbe3ff0d5	-0.18744214
53	0x3e21817d	0.15772052
54	0x3e1c93b9	0.15290727
55	0x3e09cbc1	0.13456632
56	0x3e549a25	0.20761926
57	0x3e59724a	0.21235004
58	0xbe075f0f	-0.13219856
59	0x3e642e7a	0.22283354

rnn.weight_hh_l0 f4 [60, 20]
0	0xbdda2e32	-0.10653342
1	0x3de51a92	0.111867085
2	0x3ddf3a33	0.108997725
3	0x3e472cd4	0.19450694
4	0xbc823fa0	-0.01589948
5	0x3e172fc0	0.14764309
6	0x3d0f7a9d	0.035029043
7	0x3cef1701	0.029185774
8	0x3dd2f22d	0.103000976
9	0xbe02657f	-0.1273403
10	0xbdffeb29	-0.12496025
11	0x3e544133	0.20727997
12	0x3db32364	0.087469846
13	0x3d653b04	0.055964485
14	0xbe129871	-0.14315964
15	0x3e3923a9	0.1808001
16	0xbe259fc9	-0.16174234
17	0x3e03effc	0.12884516
18	0xbd8cb1a5	-0.068698205
19	0xbd862cec	-0.06551537
20	0x3de9e811	0.11421216
21	0x3e27964b	0.16365926
22	0x3e01cf63	0.12676768
23	0xbd8ec749	-0.069716044
24	0xbe0b50fa	-0.13605109
25	0xbd7c2003	-0.061553966
26	0x3de9131e	0.113805994
27	0x3bb5bb66	0.0055460213
28	0xbc69bde4	-0.014266465
29	0xbcbe69c6	-0.023243796
30	0xbe4f26ec	-0.20229691
31	0x3e3e57d1	0.18588187
32	0xbd85293a	-0.06502004
33	0x39fca88d	0.00048190766
34	0x3de91e64	0.1138275
35	0x3dd4c444	0.10388997
36	0x3d33561d	0.043783296
37	0xbdbca40e	-0.092109784
38	0x3e41df40	0.1893282
39	0x3dc8d0b0	0.09805429
40	0xbc9f31bb	-0.019432893
41	0x3dfac496	0.12244527
42	0x3de53d77	0.11193364
43	0x3d970586	0.073741004
44	0xbe3338ce	-0.17502138
45	0xbdf974a1	-0.12180448
46	0x3e61ed2e	0.22063133
47	0xbd51361d	-0.051076997
48	0xbd042373	-0.03226037
49	0x3dedcc88	0.11611277
50	0xbddeff65	-0.108885564
51	0xbd8c0714	-0.068372875
52	0xbe44bd16	-0.19212756
53	0xbcbe5700	-0.023234844
54	0x3d84a4e0	0.0647676
55	0x3e42ef7d	0.1903667
56	0xbe0e4c89	-0.13896383
57	0xbe3b3820	-0.18283129
58	0xbc6ecf5d	-0.014575806
59	0xbde2e85b	-0.110794745
60	0xbda7eff6	-0.08200066
61	0xbdcff8ec	-0.101549
62	0xbe10c3a7	-0.14137135
63	0x3d0e4b9b	0.03474007
64	0x3d32377f	0.043509956
65	0x3ba8ceb5	0.0051515945
66	0x3e2ac1c3	0.16675477
67	0xbcbb265d	-0.022845441
68	0x3e2133cc	0.15742415
69	0xbdeb5138	-0.114901006
70	0x3bd52b5b	0.0065054125
71	0x3c3bfb4e	0.01147349
72	0xbcdd557b	-0.0270183
73	0xbe4a52cc	-0.19758147
74	0xbe25b6fe	-0.16183087
75	0xbc301b3a	-0.010748679
76	0xbc3cd2db	-0.011524881
77	0x3e435966	0.19077072
78	0xbe1ebd0d	-0.15501805
79	0xbd5b84ec	-0.05359356
80	0x3e5b88ea	0.21438947
81	0xbe338945	-0.17532833
82	0xbdf5f343	-0.12009289
83	0xbd9109ca	-0.07081945
84	0x3d18c362	0.037295707
85	0xbe082b13	-0.13297682
86	0xbbb9fcb8	-0.0056758784
87	0x3e134227	0.14380704
88	0x3de8a9dc	0.11360523
89	0x3e4658b2	0.19369772
90	0xbdbc64e3	-0.0919893
91	0x3d9af665	0.07566527
92	0x3cc63d0c	0.024199031
93	0x3e1bf1e8	0.15228999
94	0x3e5055c4	0.20345217
95	0xbe13c52c	-0.14430684
96	0x3e42453d	0.18971725
97	0x3d609254	0.05482705
98	0x3e0eb2be	0.13935372
99	0x3e1c0866	0.15237579
100	0x3d2c90de	0.042130344
101	0xbbeb18f6	-0.0071746064
102	0x3df30990	0.11867058
103	0x3e5633fe	0.20918271
104	0x3e3a719e	0.18207404
105	0x3d8dca10	0.06923306
106	0x3e332a84	0.17496687
107	0xbe557e9f	-0.20849083
108	0x3e1c9229	0.1529013
109	0xbc6f56cd	-0.014608097
110	0xbc130cf8	-0.00897526
111	0x3de197ad	0.11015258
112	0xbc887420	-0.016656935
113	0xbdc09b7a	-0.09404655
114	0xbe2c271b	-0.16811793
115	0xbdc2705d	-0.09494088
116	0xbe16096b	-0.1465203
117	0xbced340c	-0.028955482
118	0xbdbe3c25	-0.092888154
119	0xbcc652f0	-0.02420947
120	0xbe37ac6b	-0.17936866
121	0xbe60c613	-0.2195056
122	0x3e23dedb	0.16002981
123	0xbe29bea7	-0.16576634
124	0xbc8f0472	-0.017458174
125	0x3da9821d	0.0827677
126	0x3dcd07d4	0.10011259
127	0x3e1e9be3	0.15489154
128	0xbe461407	-0.19343577
129	0x3d10b473	0.03532834
130	0xbc8ca162	-0.017166797
131	0x3d709781	0.058738235
132	0x3de04ecc	0.10952529
133	0x3e2f7024	0.17132622
134	0x3ddd3c3e	0.10802506
135	0x3e1e5b6f	0.15464567
136	0xbe596beb	-0.21232574
137	0xbe1a5843	-0.15072732
138	0xbe1e3c47	-0.15452681
139	0x3d818d46	0.06325774
140	0x3c6d3e47	0.01448018
141	0x3e44b3d5	0.19209225
142	0x3d21c213	0.039491724
143	0xbb56a38a	-0.0032751285
144	0xbe2ac675	-0.16677268
145	0x3d07a602	0.0331173
146	0x3e2349f7	0.15946184
147	0xbe336e8f	-0.17522644
148	0x3e5f500f	0.21807884
149	0xbe507857	-0.20358406
150	0xbd6b0100	-0.057374
151	0xbe5ecba7	-0.21757375
152	0xbdcaeb55	-0.09908167
153	0xbd4eb7e3	-0.050468337
154	0x3dbd649c	0.09247705
155	0xbde39967	-0.111132436
156	0x3d9c06de	0.07618497
157	0x3c16dc78	0.009207837
158	0xbd92a2aa	-0.07159932
159	0x3e3ffc12	0.18748501
160	0xbe1f084f	-0.15530513
161	0xbd8a2bc6	-0.0674663
162	0xbe4b4ea1	-0.19854213
163	0xbe69aa44	-0.22818857
164	0xbe5d6577	-0.21620737
165	0x3d3473cb	0.04405574
166	0xbd77952c	-0.060444996
167	0xbe0f542d	-0.13996954
168	0x3c4c7ddf	0.012481182
169	0xbdad18e2	-0.08452012
170	0x3cb80cd2	0.02246705
171	0xbe33be5c	-0.17553085
172	0x3e449103	0.19195943
173	0x3dfc834a	0.12329729
174	0xbe299009	-0.16558851
175	0x3e5de14b	0.21667974
176	0xbd9223da	-0.071357444
177	0xbdcfa3e3	-0.10138681
178	0x3e493449	0.19648851
179	0xbcc0f635	-0.0235549
180	0x3e1af710	0.1513331
181	0x3d5078cc	0.05089645
182	0x3bf5ee31	0.0075052013
183	0x3c401f6e	0.011726243
184	0x3d599fca	0.053130902
185	0xbdf96828	-0.12178069
186	0xbe01d2b0	-0.12678027
187	0x3d70395c	0.058648452
188	0x3e4fad20	0.20280886
189	0xbc3e536e	-0.011616571
190	0x3e01ead9	0.12687244
191	0xbdc55838	-0.09635967
192	0xbd590faa	-0.052993454
193	0x3d4ccf50	0.050002396
194	0x3d9c8dfa	0.076442674
195	0x3e0b909b	0.13629381
196	0xbda718aa	-0.08159001
197	0xbda23f73	-0.07922258
198	0xbe5c5ba9	-0.2151934
199	0xbe125ee9	-0.14294018
200	0xbdadad9e	-0.084803805
201	0x3e58a357	0.21156059
202	0xbe1bb8a6	-0.15207157
203	0xbdcfc371	-0.10144699
204	0x3e1649a9	0.14676537
205	0x3c725823	0.014791521
206	0xbd8d2a49	-0.06892831
207	0xbe313619	-0.17305793
208	0x3d92ac94	0.07161823
209	0x3cda9586	0.026682626
210	0xbe3104ed	-0.17287035
211	0x3df10cd5	0.11770026
212	0x3e01b682	0.12667277
213	0x3e133044	0.1437388
214	0xbe4c4fd1	-0.19952323
215	0xbd14a4d4	-0.036290005
216	0xbe5df0fd	-0.21673961
217	0xbd09aafa	-0.03361032
218	0xbe054a17	-0.13016544
219	0x3bf9ccb6	0.0076232804
220	0xbbf894d7	-0.0075861025
221	0xbb46b49e	-0.0030320059
222	0x3e1c18fc	0.15243906
223	0x3e4ae0aa	0.19812265
224	0x3e4afd0c	0.19823092
225	0x3e4a2584	0.19740874
226	0x3dd7aa53	0.10530534
227	0xbe0da265	-0.1383148
228	0x3d5bf9e0	0.053705096
229	0xbe22bc98	-0.15892255
230	0xbd70470b	-0.0586615
231	0x3e27c9b1	0.16385533
232	0x3c304738	0.010759167
233	0xbd251925	-0.040307183
234	0x3ce4a006	0.027908336
235	0x3e10543a	0.1409463
236	0xbb29ead1	-0.0025927315
237	0xbdf48f40	-0.11941385
238	0x3b0d4aa3	0.002155938
239	0xbe38a2e2	-0.18030885
240	0x3e4d33a5	0.20039232
241	0xbdd94fed	-0.10610948
242	0x3e350f6d	0.17681666
243	0x3e0da63a	0.13832942
244	0xbd2702a6	-0.04077401
245	0x3c88efb5	0.016715864
246	0xbc7223dc	-0.014779057
247	0xbcc1f33e	-0.023675557
248	0xbdbef2ac	-0.0932363
249	0xbe5c933a	-0.21540537
250	0xbcc1081e	-0.02356344
251	0xbde5a861	-0.11213756
252	0xbe5553f8	-0.20832813
253	0xbd8d2ee6	-0.06893711
254	0xbe5f444a	-0.21803394
255	0x3ca3a939	0.019978153

rnn.bias_ih_l0 f4 [60]
0	0xbe647a3a	-0.2231225
1	0x3c925f27	0.017867638
2	0xbe5e1bb4	-0.21690255
3	0xbdd8efdf	-0.10592627
4	0xbe174d85	-0.14775665
5	0xbdde6566	-0.10859184
6	0xbde5bb75	-0.11217395
7	0x3dcb9629	0.0994075
8	0xbd9371c0	-0.071994305
9	0xbdf1ede4	-0.11812952
10	0x3e12b2ad	0.14325972
11	0xbd3de374	-0.046359494
12	0x3c254977	0.010088316
13	0xbdc62b12	-0.09676184
14	0xbd9854e3	-0.07438066
15	0xbcfdcbb9	-0.030980932
16	0x3cf54d28	0.029944018
17	0x3c85c5af	0.016329614
18	0xbdf3093b	-0.11866995
19	0x3e231bc9	0.15928568
20	0xbe0d6bcb	-0.13810651
21	0x3e3cc44a	0.18434253
22	0x3e32698d	0.17423077
23	0xbe046871	-0.12930466
24	0x3dd76716	0.10517709
25	0xbe13ef0c	-0.14446658
26	0x3ca5f5e4	0.020258851
27	0x3e1aa032	0.15100172
28	0xbe3af7a6	-0.18258533
29	0x3d4ed6c8	0.0504978
30	0xbdb39109	-0.08767898
31	0xbe437bb7	-0.19090162
32	0xbd8854fc	-0.066568345
33	0x3e5e48b2	0.21707419
34	0xbe390d74	-0.18071538
35	0xbc7e8fa8	-0.01553718
36	0x3d2f8d10	0.042859137
37	0xbd4a0cdd	-0.049328674
38	0xbdc9845c	-0.09839699
39	0x3e27fe4a	0.16405597
40	0x3d79af70	0.060958326
41	0xbe4b8539	-0.19875039
42	0x3e4b0c12	0.19828823
43	0xbdd77616	-0.1052057
44	0xbdb0b2c6	-0.08627848
45	0x3d476b5d	0.048686374
46	0xbe159721	-0.14608432
47	0x3e0f433a	0.13990489
48	0x3dd88714	0.10572639
49	0x3d7421b3	0.05960245
50	0x3cac45a2	0.021029297
51	0x3cc0baed	0.023526633
52	0xbe04aec7	-0.12957297
53	0x3d8195be	0.06327389
54	0x3c7c9f7b	0.0154188825
55	0x3e1d9b06	0.15391168
56	0x3e170afc	0.14750284
57	0xbe1e6e8a	-0.15471855
58	0x3e1b2b8d	0.15153332
59	0xbe519423	-0.20466666

rnn.bias_hh_l0 f4 [60]
0	0x3d31afc0	0.0433805
1	0x3d8aa88a	0.067704275
2	0xbdd43716	-0.10362069
3	0xbe1b77a0	-0.15182352
4	0xbd888dac	-0.06667647
5	0xbe527ead	-0.20556135
6	0xbe319a49	-0.17344011
7	0x3dad42bd	0.08459995
8	0xbe52fa0d	-0.206032
9	0xbd554be7	-0.05207434
10	0xbd6e31eb	-0.058153074
11	0x3deb631a	0.114935115
12	0x3e196198	0.14978635
13	0x3df43254	0.11923662
14	0x3e5c4962	0.21512368
15	0x3e0e57b3	0.13900642
16	0x3e21672b	0.15762012
17	0xbd87d6f9	-0.066328
18	0x3dd5983b	0.10429426
19	0x3e4eab03	0.20182423
20	0x3daeb964	0.08531454
21	0x3d3e2508	0.046422035
22	0x3e061d21	0.1309705
23	0xbe0db755	-0.13839467
24	0xbe40f3d6	-0.18843016
25	0xbe5dc97f	-0.21658896
26	0xbd80ea52	-0.06294693
27	0xbe1818b8	-0.1485318
28	0xbdb93ae5	-0.09044436
29	0xbe4b42d5	-0.19849713
30	0xbe0e7cda	-0.13914815
31	0x3e47cafe	0.19511029
32	0x3e17629f	0.14783715
33	0xbe029f29	-0.12756027
34	0x3e024196	0.12720332
35	0x3e26c5cd	0.16286393
36	0xbdf44d4b	-0.11928805
37	0x3d8529d1	0.065021165
38	0xbe524d23	-0.20537238
39	0xbdf88bff	-0.12136077
40	0xbe0381c0	-0.12842464
41	0x3cca7842	0.024715547
42	0x3e2c9690	0.1685431
43	0x3ceb1303	0.028695589
44	0x3e3a64e7	0.18202554
45	0x3e40c7b6	0.18826184
46	0xbe1e5cce	-0.1546509
47	0x3e2a651c	0.16640133
48	0xbdb95200	-0.090488434
49	0x3e0f789a	0.1401085
50	0x3d10358f	0.035207327
51	0x3e35dc40	0.177598
52	0x3d92c8c2	0.07167198
53	0x3e085897	0.13315044
54	0xbe3affb5	-0.18261607
55	0xbdfea3c2	-0.12433578
56	0x3d9df6e0	0.07713103
57	0x3e527099	0.20550765
58	0x3dda5c94	0.10662189
59	0x3e54080d	0.20706196

rnn.weight_ih_l0_reverse f4 [60, 1]
0	0xbcf84b6c	-0.030309401
1	0x3e6bb1f2	0.230171
2	0xbe44d579	-0.19222058
3	0xbdf74eda	-0.120755866
4	0x3d9f4d6a	0.077784374
5	0x3c53e608	0.012933262
6	0x3e468438	0.19386375
7	0xbe127e64	-0.14306027
8	0xbe001b2d	-0.12510367
9	0x3e0c4c9a	0.13701096
10	0x3e37b08f	0.17938446
11	0xbd8d49f1	-0.06898869
12	0x3df8db5f	0.12151217
13	0x3e5bb4df	0.21455716
14	0xbe34a062	-0.17639306
15	0x3ca9bd00	0.020720005
16	0xbda85aec	-0.08220467
17	0xbe49f10b	-0.19720857
18	0x3e08bcd2	0.13353279
19	0xbd0526c0	-0.032507658
20	0xbe4fae1f	-0.20281266
21	0x3db41078	0.08792204
22	0x3e129405	0.14314277
23	0xbcb985dc	-0.022646837
24	0xbc361bfa	-0.011115069
25	0x3d426fb3	0.047469806
26	0xbe2a46bb	-0.16628544
27	0xbe2abc7f	-0.16673468
28	0x3e543631	0.20723797
29	0x3d8d2289	0.06891353
30	0x3e2d311d	0.16913266
31	0x3d0e5d1f	0.034756776
32	0xbe371571	-0.17879273
33	0xbe41aeb1	-0.18914296
34	0xbe2f0c58	-0.17094553
35	0xbe440ce0	-0.19145536
36	0xbe44c621	-0.19216205
37	0xbe6694f6	-0.22517762
38	0x3de10522	0.10987307
39	0xbe3d3fdc	-0.18481392
40	0x3d4537a5	0.04814877
41	0x3e500263	0.2031341
42	0x3cb116ed	0.021617377
43	0x3ca31e54	0.019911923
44	0xbe25aaaf	-0.16178392
45	0x3dcca30a	0.09992035
46	0xbd72c271	-0.059267465
47	0xbdb10fa8	-0.08645564
48	0xbe1fe552	-0.15614823
49	0x3e4cf68e	0.20015928
50	0x3e4bac2f	0.19889902
51	0x3dedf42d	0.116188385
52	0x3d9ec2d6	0.07752006
53	0x3dbf83df	0.09351324
54	0xbe006e17	-0.12541996
55	0x3e31da2d	0.17368384
56	0x3d5ada9e	0.053431146
57	0xbd7ae395	-0.061252195
58	0xbd1256da	-0.03572736
59	0xbd4508ba	-0.048104025

rnn.weight_hh_l0_reverse f4 [60, 20]
0	0xbdbb711b	-0.091524325
1	0x3cc73dcf	0.024321465
2	0x3d2dccce	0.042431645
3	0xbdda99e0	-0.106738806
4	0x3ddd7065	0.10812453
5	0xbd56d263	-0.052446734
6	0x3c00a249	0.007851192
7	0xbd1fd8dd	-0.039025176
8	0x3dabafcb	0.08383139
9	0xbd9ca975	-0.07649509
10	0x3e396102	0.18103412
11	0x3e43a7ff	0.19107054
12	0xbdba07a0	-0.090834856
13	0xbcce8f01	-0.025214674
14	0xbe089f40	-0.13341999
15	0x3da3c81b	0.079971515
16	0x3c9f34b2	0.019434307
17	0xbe0ce812	-0.13760403
18	0x3e4d538c	0.20051402
19	0xbe2a6e0c	-0.16643542
20	0x3e26923d	0.16266723
21	0x3e3ff893	0.18747167
22	0x3dd343cb	0.10315665
23	0xbe5b8ce2	-0.21440461
24	0x3e35d8bd	0.1775846
25	0x3e0b71d9	0.13617648
26	0xbe45b4a0	-0.19307184
27	0xbe6bd3ec	-0.2303006
28	0x3e43d55d	0.1912436
29	0xbe38122f	-0.17975686
30	0xbe1e6be9	-0.15470852
31	0x3d863a18	0.06554049
32	0xbe4fd0fb	-0.20294563
33	0x3d9b3486	0.075783774
34	0x3e40ac65	0.18815763
35	0xbd954d46	-0.07290129
36	0x3e0cfe80	0.13768959
37	0x3da97960	0.082751036
38	0xbe337611	-0.17525508
39	0x3d028620	0.031866193
40	0x3cd45aba	0.025922168
41	0xbd7798ea	-0.060448565
42	0xbe360a26	-0.17777309
43	0x3e500cd8	0.203174
44	0x3dfd5014	0.12368789
45	0x3e436ffe	0.1908569
46	0xbe4debf8	-0.20109546
47	0x3dc0fe47	0.094234996
48	0xbe1afb77	-0.15134989
49	0xbdd6e3b9	-0.104926534
50	0xbe0b63c0	-0.1361227
51	0x3d6fabc9	0.058513436
52	0xbe0c1a4c	-0.13681906
53	0xbdb736e1	-0.08946014
54	0xbe0871dc	-0.13324684
55	0x3ddd339a	0.10800858
56	0x3d9137fc	0.07090756
57	0xbe4fbe12	-0.2028735
58	0xbda5602d	-0.08074985
59	0xbde16be2	-0.11006905
60	0x3d3c5429	0.0459787
61	0xbe54be9b	-0.20775835
62	0xbe1db7db	-0.15402167
63	0x3e422c21	0.18962146
64	0xbe5dbc4f	-0.21653865
65	0x3d932718	0.07185191
66	0x3d0145ac	0.031560585
67	0x3d84c75b	0.064833365
68	0xbc92ead3	-0.017934239
69	0x3e3a9179	0.18219556
70	0x3e030d57	0.12798057
71	0x3e54b459	0.20771922
72	0xbc6a47a3	-0.014299306
73	0x3e1e4970	0.15457702
74	0xbd3acef3	-0.04560752
75	0x3e1299be	0.1431646
76	0xbdc5c22d	-0.09656177
77	0x3e5f37b9	0.217986
78	0x3e02f52c	0.12788838
79	0xbe57b636	-0.21065602
80	0x3e4fcc92	0.20292881
81	0x3d96a7c6	0.07356219
82	0xbd3830b5	-0.044968326
83	0xbe1a5568	-0.15071642
84	0xbd1960ef	-0.03744596
85	0xbd81bf44	-0.06335309
86	0xbe1dc409	-0.15406813
87	0x3decfddf	0.115718596
88	0xbc9c869f	-0.019107161
89	0xbe1b5d35	-0.15172274
90	0xbe6020c1	-0.21887495
91	0x3e137ae6	0.14402351
92	0xbe366dc3	-0.17815308
93	0x3e060268	0.13086855
94	0xbd3addd3	-0.045621704
95	0x3df74ec8	0.12075573
96	0xbd7b17e7	-0.061302092
97	0x3e254d3d	0.16142745
98	0x3e11264a	0.14174762
99	0x3e124f8b	0.14288156
100	0x3d28bf10	0.041197836
101	0x3de9e68a	0.11420925
102	0x3e446961	0.19180824
103	0xbe2eb7c4	-0.17062289
104	0xbccd01bf	-0.025025247
105	0x3e2e94db	0.17048971
106	0xbe3ebd9a	-0.18627015
107	0xbcb679a1	-0.022274794
108	0x3b5cbb28	0.003368089
109	0xbe417c18	-0.18894994
110	0xbe33fcab	-0.17576854
111	0x3dea307a	0.114350274
112	0xbd78f24a	-0.06077794
113	0xbe3211cc	-0.17389601
114	0x3e455af8	0.19272983
115	0x3deaa628	0.11457473
116	0x3e545ee8	0.20739329
117	0xbe106e5a	-0.14104596
118	0xbd61b97d	-0.055108536
119	0x3d6ab471	0.05730099
120	0xbe5f2a68	-0.2179352
121	0x3c2b3956	0.010450682
122	0xbce67602	-0.028132442
123	0x3de5e72d	0.11225734
124	0xbddc2e2d	-0.10750995
125	0xbdb23cd3	-0.087030075
126	0x3e36ec47	0.1786357
127	0xbdd03faf	-0.10168397
128	0xbdc3d755	-0.09562556
129	0x3e05c417	0.13063084
130	0x3db50fa1	0.088408716
131	0x3d580d64	0.052747145
132	0x3dbd7f89	0.09252841
133	0xbd5c8fb6	-0.05384799
134	0xbe1a62c2	-0.15076736
135	0xbd35679e	-0.04428827
136	0xbd60c49b	-0.054874998
137	0x3dfbd6d7	0.12296837
138	0xbdcc5d67	-0.099787526
139	0xbd42b732	-0.04753799
140	0x3e2d1304	0.16901785
141	0xbcf874bd	-0.030329103
142	0xbbb14e68	-0.005410958
143	0xbdf7e094	-0.12103382
144	0xbd184b62	-0.037181266
145	0xbd224727	-0.039618637
146	0x3e02518d	0.12726422
147	0xbe529897	-0.20566021
148	0xbe14263e	-0.14467713
149	0xbcafcfad	-0.021461332
150	0xbe5bafe3	-0.21453814
151	0xbe1252cd	-0.14289398
152	0x3bf20ab9	0.007386532
153	0x3e4d81dc	0.20069069
154	0xbc43eefc	-0.011958834
155	0x3ae93be2	0.0017794336
156	0x3e1bfecc	0.15233916
157	0xbd3384e1	-0.043827895
158	0x3e5e8dc4	0.21733767
159	0xbcc8c369	-0.024507241
160	0xbd89e3f5	-0.067329325
161	0xbe16fb3d	-0.14744277
162	0xbe231934	-0.15927583
163	0xbe101ff0	-0.14074683
164	0xbd44b6b4	-0.0480258
165	0xbc5aec13	-0.013361949
166	0x3dfd3f92	0.12365641
167	0x3dc96b62	0.09834935
168	0x3dc7b0d6	0.09750526
169	0x3d34c87f	0.04413652
170	0x3e031996	0.12802729
171	0xbe2331df	-0.15936993
172	0xbdb2d118	-0.08731288
173	0xbd2f07ca	-0.042732038
174	0x3db5c13d	0.08874748
175	0x3c011e31	0.007880733
176	0x3e1b8b1c	0.15189785
177	0x3dd331d4	0.10312238
178	0x3e3ba8c2	0.18326095
179	0x3cdcf29f	0.02697116
180	0xbe63132b	-0.22175281
181	0x3dc52a7f	0.09627246
182	0xbe392ab2	-0.18082693
183	0xbb6bcf19	-0.0035981594
184	0x3e3fb56e	0.18721554
185	0xbbf101cd	-0.007354951
186	0xbdaaf7e6	-0.08348064
187	0x3e429628	0.19002593
188	0xbd949c85	-0.07256416
189	0x3de2cf98	0.110747516
190	0x3e430dde	0.19048259
191	0x3d969347	0.0735231
192	0x3df2b15a	0.118502334
193	0xbe693d00	-0.22777176
194	0xbd8af1a7	-0.06784373
195	0xbd0de1aa	-0.03463904
196	0x3e55bd03	0.20872883
197	0x3d54fbde	0.05199801
198	0xbe21b2c5	-0.15790851
199	0xbd47cbca	-0.048778333
200	0xbc669253	-0.014072972
201	0x3d9bebb9	0.0761332
202	0xbe3509cc	-0.17679518
203	0x3e4f1ff9	0.2022704
204	0xbe3fa9b3	-0.18717079
205	0xbe3e4b2f	-0.18583368
206	0x3e16de61	0.14733268
207	0x3d0135ce	0.031545453
208	0xbc0616a4	-0.008184109
209	0xbe39c9bc	-0.18143362
210	0x3e612ea9	0.21990456
211	0x3d8a8f7f	0.06765651
212	0xbc907105	-0.017632017
213	0xbd78daa6	-0.060755394
214	0x3cbdc849	0.023166792
215	0x3e0df181	0.13861658
216	0xbe233654	-0.15938693
217	0xbd7688a2	-0.060188897
218	0xbb7e6efa	-0.0038823471
219	0x3e384fc8	0.17999184
220	0xbce2a99f	-0.027668772
221	0x3e1620e3	0.14660983
222	0x3e579958	0.2105459
223	0x3dcb069f	0.09913372
224	0xbe238dfa	-0.15972129
225	0xbdd46a38	-0.10371822
226	0xbbcc7904	-0.006240012
227	0xbd874dbe	-0.06606625
228	0x3e396020	0.18103075
229	0x3dafbd2e	0.08581005
230	0xbc5c31b7	-0.013439587
231	0x3e211ea3	0.15734343
232	0x3e668501	0.22511674
233	0xbdd91e23	-0.10601451
234	0x3dfd411b	0.123659335
235	0xbd43c4b1	-0.047795
236	0x3e65ceb0	0.22442126
237	0x3cfae5d6	0.030627172
238	0x3d4f22e0	0.05057037
239	0xbe5e919e	-0.21735236
240	0x3e060178	0.13086498
241	0x3d19e120	0.03756821
242	0x3bbdae29	0.005788584
243	0x3d6bf945	0.05761077
244	0x3e11d3a9	0.14240898
245	0xbdb3a89a	-0.087723926
246	0x3e5c3573	0.21504764
247	0x3d5f4b23	0.054515015
248	0x3d7d3039	0.061813567
249	0x3e4f7bd4	0.2026208
250	0xbd2c8cd0	-0.042126477
251	0xbd16817d	-0.036744583
252	0x3e2b43bb	0.16725056
253	0xbd9b8a18	-0.07594699
254	0x3d2c3261	0.042040233
255	0x3e43f693	0.1913703

rnn.bias_ih_l0_reverse f4 [60]
0	0xbd5f605e	-0.054535262
1	0x3e08e60a	0.13369003
2	0x3e2e7efa	0.17040625
3	0x3d83e1ea	0.06439574
4	0xbd88fdc9	-0.06689031
5	0x3e33926c	0.17536324
6	0x3c596fc4	0.013271276
7	0x3e0473df	0.12934826
8	0xbe184d4f	-0.14873241
9	0x3c01f2fe	0.007931469
10	0xbb1970a3	-0.0023413084
11	0xbe00de54	-0.12584811
12	0xbdfd38fb	-0.12364384
13	0x3d6fca06	0.058542274
14	0x3e4dec8d	0.20109768
15	0x3e205381	0.15656854
16	0x3e48e7b2	0.19619635
17	0x3e339a6f	0.1753938
18	0xbdad74de	-0.08469556
19	0x3df2f901	0.118639
20	0xbe5096c5	-0.20370014
21	0xbd939737	-0.07206576
22	0xbdfedc97	-0.12444418
23	0xbe0f1192	-0.13971546
24	0xbe5c6a5c	-0.21524948
25	0x3e0e869d	0.13918538
26	0xbdf8c9b2	-0.12147845
27	0xbe3c1983	-0.18369107
28	0xbd939977	-0.072070055
29	0x3e3e38ed	0.18576403
30	0xbd14d2e3	-0.03633393
31	0x3d40472b	0.04694287
32	0x3df13fef	0.117797725
33	0x3ca1cecf	0.019751934
34	0xbe165f41	-0.14684774
35	0x3e5e1806	0.21688852
36	0x3d78013d	0.060548056
37	0x3e519dd5	0.20470364
38	0x3df1edb9	0.1181292
39	0xbd9af68e	-0.07566558
40	0x3dbaed25	0.09127263
41	0x3d58a6f6	0.0528936
42	0xbc91af0b	-0.017783662
43	0x3e5cee31	0.21575238
44	0xbc865fc1	-0.01640308
45	0xbd86c605	-0.06580738
46	0x3d8f48aa	0.069962814
47	0xbcc71ce4	-0.024305768
48	0x3e5f02d9	0.2177843
49	0x3e608d7c	0.21928972
50	0x3dc89eb3	0.097958945
51	0x3e404f21	0.18780185
52	0x3c7fa1b4	0.015602518
53	0x3e655a97	0.22397839
54	0x3e31a699	0.17348708
55	0x3e43b660	0.1911254
56	0x3d9b9c01	0.07598115
57	0xbe163984	-0.14670378
58	0x3db36d1a	0.08761044
59	0x3d77ef08	0.060530692

rnn.bias_hh_l0_reverse f4 [60]
0	0x3e2267d0	0.15859914
1	0xbe1f7784	-0.15572935
2	0xbe2ae678	-0.1668948
3	0x3e05d73e	0.1307039
4	0xbcdad7c6	-0.026714217
5	0x3dbd792e	0.09251629
6	0xbd22b4c2	-0.039723165
7	0x3dc664f3	0.09687223
8	0xbde552b2	-0.111974135
9	0xbe14ab96	-0.1451858
10	0xbe0378bb	-0.12839024
11	0xbd01045b	-0.031498294
12	0xbe508ba2	-0.20365766
13	0xbe5f298a	-0.2179319
14	0x3deeaff2	0.11654653
15	0xbdffa652	-0.12482895
16	0xbe2ef4c7	-0.17085563
17	0xbe2de8ac	-0.16983289
18	0x3d968978	0.07350439
19	0xbe3f997e	-0.18710896
20	0xbe479de9	-0.19493832
21	0x3dc13897	0.09434622
22	0xbe533558	-0.20625818
23	0xbe56b469	-0.20967259
24	0xbd170847	-0.03687313
25	0xbd1710ca	-0.036881246
26	0xbdbd8688	-0.092541754
27	0x3ce8ff4b	0.028442046
28	0xbd65b8fa	-0.05608461
29	0x3e0aec1f	0.13566636
30	0xbddbca0d	-0.107318975
31	0x3db61d2a	0.08892281
32	0xbd6b6cc7	-0.057476785
33	0x3dd13853	0.10215821
34	0xbdf622fb	-0.12018391
35	0xbe03168e	-0.12801573
36	0xbd06b59f	-0.03288805
37	0x3df03e86	0.117306754
38	0x3d9a7389	0.07541568
39	0xbb4f0914	-0.0031591104
40	0x3dbc60a2	0.09198119
41	0x3dae4ff9	0.08511347
42	0xbc4279a6	-0.011869824
43	0xbdd6f5ee	-0.10496126
44	0xbd9bda44	-0.0760999
45	0xbe2b36f1	-0.16720177
46	0xbe5dff7b	-0.2167949
47	0x3e4f89da	0.2026743
48	0xbe20f7ce	-0.1571953
49	0xbd8af26a	-0.06784518
50	0x3e3ccc92	0.18437412
51	0xbe3334be	-0.17500588
52	0xbdcc400a	-0.09973152
53	0xbdc38267	-0.09546357
54	0xbe08e9aa	-0.13370386
55	0xbd20b5bb	-0.03923581
56	0xbcda276d	-0.026630128
57	0x3e079efe	0.13244244
58	0x3c5422d7	0.01294776
59	0x3de3198c	0.11088857

rnn.weight_ih_l1 f4 [60, 40]
0	0x3cd57d77	0.026060803
1	0x3c2a4d66	0.01039443
2	0x3e3e26f8	0.18569553
3	0xbd7aa53d	-0.06119274
4	0xbe698acf	-0.22806858
5	0xbe59da23	-0.21274619
6	0xbe3ce32f	-0.18446039
7	0xbc5e72d3	-0.013577181
8	0x3d937fb7	0.07202094
9	0x3da2f0b1	0.079560645
10	0xbd517850	-0.05114013
11	0x3e405069	0.18780674
12	0xbe379235	-0.17926867
13	0x3dc099c7	0.09404331
14	0x3e242d10	0.16032815
15	0xbdb00455	-0.08594576
16	0xbb7df37a	-0.003874986
17	0xbe182b03	-0.14860158
18	0xbe22c865	-0.15896757
19	0x3e02391b	0.12717097
20	0xbc489cf3	-0.012244451
21	0xbb948430	-0.0045323595
22	0x3c87b903	0.016567713
23	0x3df267bb	0.11836191
24	0xbd10db94	-0.035365656
25	0xbd96f711	-0.07371343
26	0xbe5c08b9	-0.21487702
27	0x3e3c083f	0.1836252
28	0xbdb3d663	-0.087811254
29	0x3e0c5ab5	0.13706477
30	0x3e2a458d	0.16628094
31	0xbdfba4f8	-0.12287325
32	0xbdea4b85	-0.114401855
33	0x3e5cb620	0.2155385
34	0x3dc40c18	0.09572619
35	0xbe13834c	-0.14405555
36	0xbcb0b247	-0.021569384
37	0xbd140d0d	-0.03614526
38	0xbe67a4ed	-0.22621508
39	0xbe4a0ae4	-0.19730717
40	0x3d0b3ea2	0.03399528
41	0xbd861173	-0.06546297
42	0x3b702fca	0.0036649578
43	0xbe1bc610	-0.15212274
44	0xbda3dd8e	-0.080012426
45	0x3e03b343	0.12861352
46	0x3c66c611	0.014085309
47	0x3dcb8bcb	0.09938773
48	0x3e629d72	0.22130373
49	0x3d8dab75	0.069174685
50	0x3d3032eb	0.04301731
51	0x3e16ba1f	0.14719437
52	0x3e26c048	0.16284287
53	0x3e1e821d	0.15479322
54	0x3cb84ee6	0.02249856
55	0xbe0a5208	-0.13507855
56	0x3db4c1ce	0.08826028
57	0xbe0e4349	-0.13892855
58	0xbe342169	-0.1759087
59	0xbdde9cca	-0.10869749
60	0x3d8347ed	0.06410203
61	0xbde49208	-0.11160666
62	0x3daff8d9	0.08592386
63	0xbc7b8d85	-0.015353565
64	0xbde20434	-0.11035958
65	0xbe0ff9bd	-0.14060111
66	0xbdcdaaae	-0.1004232
67	0xbe48d433	-0.19612198
68	0x3d24dff2	0.040252633
69	0x3df63636	0.12022059
70	0x3e298fe9	0.16558804
71	0x3e37f7ab	0.17965572
72	0xbe47aa36	-0.19498524
73	0xbe2f909c	-0.17145008
74	0x3e51fc7f	0.20506476
75	0xbd96e72b	-0.073683105
76	0xbd9cc90d	-0.07655535
77	0xbd9f4209	-0.07776267
78	0x3dfe4ef5	0.124174036
79	0xbe37bdb8	-0.17943466
80	0xbe08492b	-0.13309161
81	0x3d9370c7	0.07199245
82	0xbd5eddb7	-0.054410663
83	0xbdfecff6	-0.12442009
84	0x3c225f4e	0.009910418
85	0x3e44c01d	0.1921391
86	0x3e1a882c	0.15091008
87	0xbd70fe86	-0.058836482
88	0x3e080400	0.13282776
89	0x3d58fa9f	0.052973386
90	0x3d495972	0.049157567
91	0x3e55ce79	0.20879544
92	0xbe30d6b7	-0.17269407
93	0xbdefa219	-0.117008395
94	0xbd63819a	-0.05554352
95	0xbd06e9cf	-0.03293782
96	0xbd59201f	-0.05300915
97	0x3e0e3b01	0.13889696
98	0xbda1b4c7	-0.07895809
99	0xbe255ed5	-0.16149457
100	0xbe164e08	-0.14678204
101	0x3e5df10e	0.21673986
102	0xbe50d049	-0.20391954
103	0x3da76f3f	0.081755154
104	0x3d913edc	0.070920676
105	0xbd06ebdd	-0.03293978
106	0x3e60557d	0.21907611
107	0x3c862bd5	0.016378323
108	0x3e536645	0.20644481
109	0xbe4cee86	-0.20012864
110	0x3e2afe87	0.16698657
111	0x3e5eae66	0.21746215
112	0x3d962f3e	0.073332295
113	0x3e3cf948	0.18454468
114	0xbdd9ca2a	-0.10634263
115	0xbd92cd99	-0.07168121
116	0x3e4cd2bc	0.20002264
117	0x3dc79615	0.09745423
118	0xbe474a6f	-0.19461988
119	0x3da33506	0.07969098
120	0x3d9fb53b	0.07798239
121	0x3dfed8f0	0.12443721
122	0xbd5a4b44	-0.053294435
123	0xbddfb652	-0.10923447
124	0x3e31c5cb	0.17360608
125	0x3e5fb1f2	0.21845224
126	0xbdc6bdfd	-0.09704206
127	0xbd9eb304	-0.07748988
128	0x3e21e111	0.15808512
129	0xbe2724bb	-0.16322605
130	0x3dd9e914	0.10640159
131	0x3e3afff1	0.18261696
132	0xbccd72c2	-0.025079135
133	0xbdce3855	-0.10069338
134	0x3dba17aa	0.09086545
135	0x3db01a60	0.08598781
136	0x3e224ff7	0.15850817
137	0x3e5fdcaf	0.21861528
138	0x3e1b2660	0.15151358
139	0x3de707df	0.11280798
140	0xbe30289a	-0.17202988
141	0x3e01276f	0.12612699
142	0x3e4df12e	0.20111534
143	0xbe5c7baf	-0.21531557
144	0x3e52bcff	0.20579909
145	0xbe226664	-0.15859371
146	0xbddbb902	-0.10728647
147	0x3dcc69bf	0.09981107
148	0x3e1d7adc	0.15378898
149	0xbddabddd	-0.10680745
150	0x3dff6497	0.12470358
151	0xbe4c1c9f	-0.19932793
152	0xbd194f3f	-0.03742909
153	0xbdb04a73	-0.0860795
154	0x3dcf72b5	0.101293005
155	0x3e4369ad	0.19083281
156	0xbe22a995	-0.15885003
157	0x3d7cb253	0.0616935
158	0xbe5312e3	-0.20612673
159	0xbe0ea187	-0.13928805
160	0xbe3a6ab4	-0.18204767
161	0x3df699cc	0.12041053
162	0xbe3877fa	-0.18014517
163	0x3e3cbf18	0.18432271
164	0xbe22a9dd	-0.1588511
165	0x3d168467	0.036747362
166	0xbe612a48	-0.21988785
167	0x3e3430f3	0.17596798
168	0x3e17f2da	0.14838734
169	0xbe3ef62b	-0.18648593
170	0x3d796e16	0.060896
171	0xbe5bcc9f	-0.21464776
172	0x3e4cb9c1	0.19992734
173	0x3d8747dd	0.06605504
174	0xbc866281	-0.016404392
175	0x3bfd642b	0.007732888
176	0x3de1afa0	0.11019826
177	0x3b6be3d3	0.0035993948
178	0xbda139c2	-0.078723446
179	0xbe2c6615	-0.16835816
180	0x3e616c34	0.22013932
181	0xbe552357	-0.20814262
182	0xbb76af09	-0.003764095
183	0x3e3f1001	0.18658449
184	0xbe368b63	-0.1782661
185	0x3d1886cb	0.037237924
186	0x3c52129c	0.01282182
187	0x3e269e9a	0.16271439
188	0xbe525550	-0.20540357
189	0xbd94feb6	-0.07275145
190	0xbe2e69e4	-0.17032582
191	0x3e23cccf	0.15996097
192	0xbc866d20	-0.016409457
193	0xbd88c7d6	-0.06678741
194	0x3c908f91	0.017646583
195	0xbd01623b	-0.03158782
196	0xbda9d577	-0.08292668
197	0x3e384e00	0.17998505
198	0x3d9d641c	0.0768511
199	0x3dcbd159	0.09952039
200	0xbe63baac	-0.22239178
201	0x3dd0c24c	0.10193309
202	0x3dd87a84	0.10570243
203	0x3e48ee1b	0.1962208
204	0x3e464552	0.19362381
205	0xbdf25a93	-0.11833682
206	0xbd0138e3	-0.031548392
207	0xbd9c6259	-0.07635946
208	0xbe479e2d	-0.19493933
209	0xbe256f7b	-0.16155808
210	0x3dfb750b	0.122781835
211	0x3e5fe3b3	0.21864204
212	0xbc875c06	-0.016523372
213	0xbe4895dc	-0.19588417
214	0xbe03e99d	-0.12882085
215	0xbe1dfdf6	-0.1542891
216	0xbde0e4bc	-0.109811276
217	0x3e0feb61	0.14054634
218	0x3c1375d7	0.009000263
219	0x3d8068eb	0.062700115
220	0xbd90755c	-0.070536345
221	0xbc019126	-0.007908141
222	0xbe3711b8	-0.17877853
223	0x3e5795fa	0.21053305
224	0x3dcc7ed4	0.09985128
225	0x3e09dc3d	0.1346292
226	0x3e4eff4e	0.20214579
227	0x3e14f134	0.14545137
228	0x3db3dc46	0.08782248
229	0xbc950f42	-0.018195752
230	0x3c2aab58	0.010416828
231	0xbe296fe7	-0.16546594
232	0x3d384ff9	0.044998143
233	0x3df7634b	0.120794855
234	0xbe5b81a8	-0.21436179
235	0xbe0df6ff	-0.13863753
236	0x3dcbfd62	0.09960438
237	0xbded68fe	-0.11592291
238	0x3e2dbd5c	0.16966766
239	0x3ca509ad	0.020146215
240	0xbd8d342e	-0.06894718
241	0xbe0aa27a	-0.13538542
242	0xbdf835d4	-0.12119642
243	0x3d7aa0e6	0.0611886
244	0xbe5f93fd	-0.21833797
245	0x3c02ebe0	0.007990807
246	0x3e14aeb7	0.14519773
247	0xbdde37ea	-0.108505085
248	0xbe028f6a	-0.1275002
249	0xbe5b596d	-0.21420832
250	0xbdd46f0e	-0.103727445
251	0xbe229f79	-0.15881146
252	0xbd0aa09d	-0.03384458
253	0x3df12bc0	0.11775923
254	0x3e3fa864	0.1871658
255	0xbc804284	-0.015656717

rnn.weight_hh_l1 f4 [60, 20]
0	0xbde96ebf	-0.11398076
1	0x3e292277	0.16517054
2	0x3df30cf4	0.11867705
3	0x3d1d25c0	0.03836608
4	0xbe1658e3	-0.14682345
5	0xbe28c0f3	-0.16479854
6	0xbcf5b84a	-0.029995102
7	0x3cad8664	0.021182247
8	0x3e3ada16	0.18247256
9	0x3cc025ca	0.02345552
10	0x3a9356ee	0.0011241117
11	0x3d902956	0.07039134
12	0xbe52f7bc	-0.20602316
13	0xbc6b8420	-0.014374763
14	0x3dac5807	0.084152274
15	0xbdb76bd8	-0.089561164
16	0x3d54305f	0.051803943
17	0xbd8311e8	-0.063999
18	0xbe6893eb	-0.22712676
19	0xbe337603	-0.17525487
20	0xbc254676	-0.0100876
21	0xbe44c965	-0.19217451
22	0x3e39e9ba	0.18155566
23	0x3dbfb356	0.093603775
24	0x3e63f8eb	0.22262923
25	0xbd6f5ca5	-0.058437962
26	0x3e155ef2	0.14587
27	0xbe50a6d8	-0.20376146
28	0x3da1735a	0.0788333
29	0x3dd7eec0	0.10543585
30	0x3cf06f46	0.029349934
31	0xbdd44090	-0.10363877
32	0xbdc61f6b	-0.09673961
33	0xbda5728d	-0.080784895
34	0x3e3d2713	0.18471937
35	0x3d893473	0.06699457
36	0xbdb03657	-0.086041145
37	0xbd9a8ef7	-0.075468
38	0x3bdf6f8b	0.006818717
39	0x3dac3810	0.084091306
40	0x3e4e4d51	0.20146681
41	0x3e138b8f	0.14408706
42	0x3e401030	0.18756175
43	0xbdbdea3f	-0.092731945
44	0x3d451bb6	0.04812213
45	0x3e1e9a8b	0.15488641
46	0x3e3ff710	0.1874659
47	0x3cd93516	0.026514571
48	0x3e4921a1	0.19641735
49	0xbe0bb3d4	-0.13642818
50	0xbe5da6fb	-0.21645729
51	0x3d487b0a	0.048945464
52	0x3e0873d7	0.1332544
53	0x3e07ec49	0.1327373
54	0xbe311282	-0.17292216
55	0x3e4ca979	0.19986524
56	0xbe3db510	-0.18526101
57	0x3e3dbdbb	0.18529408
58	0xbd8d969b	-0.06913491
59	0x3e56d4b6	0.2097958
60	0x3de61ecc	0.11236343
61	0x3e1a6c67	0.15080415
62	0x3c6b8aa2	0.014376314
63	0xbe58b61b	-0.21163218
64	0xbe3eed94	-0.18645316
65	0xbe4a7ebb	-0.19774906
66	0xbd9dcf54	-0.0770556
67	0xbd815699	-0.06315345
68	0x3d8caae7	0.068685345
69	0xbe5575ea	-0.20845762
70	0xbe2f1c61	-0.1710067
71	0xbc8170eb	-0.015800914
72	0xbd6a073b	-0.0571358
73	0xbd3ac6b3	-0.04559965
74	0xbe427d38	-0.1899308
75	0xbe6023ae	-0.2188861
76	0xbe4c7799	-0.19967498
77	0xbdd54e42	-0.10415317
78	0xbd21c025	-0.039489884
79	0xbe2985a1	-0.16554882
80	0xbe529ce6	-0.20567665
81	0xbd00f96b	-0.031487864
82	0x3e5ec7c8	0.21755898
83	0x3e18aa7f	0.14908789
84	0xbd0c484d	-0.03424864
85	0xbe236b86	-0.15958986
86	0x3d19a71f	0.037512895
87	0xbe4b7740	-0.19869709
88	0xbe23aea7	-0.15984593
89	0x3cfcfc58	0.030882046
90	0x3d4977b7	0.049186435
91	0xbde1bb72	-0.110220805
92	0x39b4dd5d	0.00034497204
93	0xbb89f574	-0.0042101685
94	0xbd4665cd	-0.04843693
95	0x3d86eea2	0.06588484
96	0x3dd2fb43	0.103018306
97	0xbe01ee19	-0.12688483
98	0xbcd3b9aa	-0.025845367
99	0xbe46f324	-0.19428688
100	0xbe0bafce	-0.13641283
101	0xbe670469	-0.22560276
102	0xbe2c3f9f	-0.16821145
103	0xbe0caf0f	-0.13738655
104	0xbc2d4a95	-0.010576864
105	0xbc2b478c	-0.01045407
106	0x3d080c34	0.033214763
107	0x3e25137c	0.16120714
108	0x3d21720b	0.0394154
109	0xbc081cb0	-0.008307621
110	0x3d95ba82	0.07310964
111	0xbdeab870	-0.1146096
112	0xb920a124	-0.00015318819
113	0x3d88c417	0.06678026
114	0x3e43bb2c	0.19114369
115	0x3e445ef3	0.19176845
116	0xbe4b541f	-0.19856308
117	0x3c51ebe0	0.012812585
118	0x3e4c97d6	0.19979796
119	0x3d028d31	0.031872932
120	0xbe54715c	-0.20746368
121	0x3e2c8582	0.16847804
122	0xbe220435	-0.15821917
123	0xbe1763c4	-0.14784151
124	0xbe1dc3d3	-0.15406732
125	0x3e53c05d	0.2067885
126	0x3e3916be	0.18075082
127	0xbd7691e8	-0.06019774
128	0x3da46892	0.08027758
129	0x3d78a826	0.060707234
130	0xbe5cfe92	-0.21581486
131	0xbdfd2b33	-0.12361755
132	0xbdcc31ea	-0.09970458
133	0x3a4be020	0.00077772327
134	0xbd700445	-0.05859782
135	0x3e2182b2	0.15772513
136	0xbe1593b7	-0.1460713
137	0xbde60f4b	-0.11233386
138	0x3c6ea2ee	0.014565213
139	0xbc69db9a	-0.0142735485
140	0xbcee0431	-0.029054733
141	0xbde8eb17	-0.11372965
142	0x3e0dd604	0.13851172
143	0x3e03e9d2	0.12882164
144	0x3cdfc4e8	0.027315572
145	0xbbe2c89e	-0.006920888
146	0x3e563b83	0.2092114
147	0x3cae2e79	0.021262394
148	0xbda567b4	-0.080764204
149	0xbe0c33c3	-0.1369162
150	0x3dfcc74c	0.123427
151	0xbdfcc450	-0.12342131
152	0x3d972418	0.07379931
153	0xbd6b625f	-0.05746686
154	0x3dc456a2	0.095868364
155	0x3dc92a0c	0.09822473
156	0x3e25da70	0.16196609
157	0xbc4fd8c3	-0.012685957
158	0xbdcab82b	-0.098984085
159	0x3cdb904e	0.026802208
160	0xbdb7c366	-0.08972816
161	0x3db94ad7	0.09047478
162	0xbc87eeda	-0.016593385
163	0xbc6c5a99	-0.014425897
164	0x3e5c41df	0.21509503
165	0xbe233a5f	-0.15940236
166	0x3e350cb4	0.17680627
167	0x3d99d10f	0.07510578
168	0xbe034c3c	-0.1282205
169	0x3e3f2ce1	0.18669464
170	0xbd83500b	-0.06411751
171	0xbe34dc06	-0.17662057
172	0xbd550bcb	-0.0520132
173	0x3b9d4a7f	0.0048001404
174	0xbe3f22db	-0.1866564
175	0x3ccad8ed	0.024761641
176	0x3ddac46b	0.10681995
177	0xbe481608	-0.19539654
178	0x3de54216	0.111942455
179	0x3d914c79	0.07094664
180	0x3e589a78	0.21152675
181	0x3e60f349	0.21967806
182	0xbce59a36	-0.028027635
183	0xbd9b4e11	-0.07583249
184	0xbe61637a	-0.22010604
185	0xbde60479	-0.11231322
186	0x3d34fc4a	0.044185914
187	0x3e0bba0d	0.13645191
188	0x3e3086af	0.17238878
189	0x3dccf398	0.10007399
190	0xbca019c8	-0.019543543
191	0x3d74d8e9	0.059777174
192	0x3df88f10	0.12136662
193	0x3e2a323f	0.1662073
194	0x3e19581c	0.14975017
195	0xbdfca4b8	-0.12336105
196	0xbdda1396	-0.10648267
197	0xbd1c0210	-0.038087904
198	0xbc60c2f7	-0.013718358
199	0xbe58d35c	-0.21174377
200	0x3e37d4b0	0.17952228
201	0x3e111c8d	0.14171048
202	0x3e481549	0.1953937
203	0x3db88313	0.090093754
204	0x3e639492	0.22224644
205	0xbc66e65a	-0.014093006
206	0xbd21fb4f	-0.039546307
207	0x3cdd5241	0.02701676
208	0x3d8164bb	0.06318041
209	0x3d7c05c8	0.06152895
210	0xbc73814f	-0.014862373
211	0x3ac28511	0.0014840682
212	0xbe1cd59e	-0.15315863
213	0xb874de40	-5.838112e-05
214	0x3deadeac	0.114682525
215	0xbba68988	-0.005082313
216	0xbe543b0f	-0.20725654
217	0xbce16922	-0.027515952
218	0xbd91f3ff	-0.07126617
219	0x3e1aabe5	0.15104635
220	0x3e0ff2b3	0.14057426
221	0xbe0f827a	-0.14014617
222	0x3daf7d7a	0.08568855
223	0x3d4b5047	0.049637105
224	0xbe1aa4e1	-0.15101959
225	0xbd9b837f	-0.0759344
226	0x3cc7a879	0.024372326
227	0x3dd1d7c2	0.10246231
228	0xbdb41f87	-0.08795076
229	0x3d83c2cb	0.06433638
230	0x3d8a719c	0.067599505
231	0xbe411731	-0.18856503
232	0xbd3e9730	-0.046530902
233	0x3d895234	0.06705132
234	0x3dd15a0a	0.10222252
235	0x3d28cb1d	0.04120933
236	0xbda3af91	-0.07992471
237	0xbda21d52	-0.07915749
238	0x3dcc131c	0.09964582
239	0x3dbe2ba5	0.09285668
240	0xbd1cc130	-0.038270175
241	0x3e605044	0.21905619
242	0x3d2a1269	0.041521464
243	0xbe39257c	-0.18080705
244	0xbbb2783c	-0.005446462
245	0xbcfe4f53	-0.031043684
246	0xbd22438a	-0.03961519
247	0x3be97b80	0.007125318
248	0xbd91f628	-0.07127029
249	0xbde3477d	-0.1109762
250	0x3e0c1482	0.13679698
251	0x3e0ced95	0.13762505
252	0xbe0a799f	-0.13522957
253	0x3d0d24a0	0.034458756
254	0x3d89d9f6	0.06731026
255	0xbc5a0cbc	-0.0133087

rnn.bias_ih_l1 f4 [60]
0	0x3c5609c8	0.0130638555
1	0x3ba26737	0.004956152
2	0x3e51c277	0.20484339
3	0xbe39cb99	-0.18144073
4	0xbc79335a	-0.015209997
5	0x3d81cbf7	0.06337731
6	0xbdfc7342	-0.12326671
7	0x3e451f45	0.1925021
8	0x3e1dd2d1	0.15412451
9	0x3e30dbf9	0.17271413
10	0x3de44ef9	0.11147875
11	0x3dad668c	0.08466825
12	0x3d8bcdc0	0.06826353
13	0x3e159374	0.1460703
14	0x3c9cae1f	0.019125996
15	0x39af1ec4	0.00033401523
16	0xbb9ad98a	-0.0047256397
17	0x3cb4e0f8	0.02207993
18	0xbe40ccc7	-0.18828116
19	0x3dec23fe	0.115303025
20	0x3e4340c7	0.1906768
21	0x3d33f81a	0.04393778
22	0x3d05ae5a	0.032636978
23	0xbd0c0909	-0.034188304
24	0xbe3ae655	-0.18251927
25	0xbe53d7e7	-0.20687829
26	0xbe2618d1	-0.16220404
27	0xbe0a7e8c	-0.13524836
28	0xbe4b5e46	-0.19860181
29	0x3d88f103	0.06686594
30	0x3e5b5b50	0.21421552
31	0xbd5bea37	-0.05369016
32	0x3e298518	0.16554677
33	0x3debf8b9	0.115220495
34	0x3e29308b	0.16522424
35	0x3db37b08	0.08763701
36	0x3e38f005	0.1806031
37	0x3e2d1bc5	0.16905124
38	0xbdebce93	-0.1151401
39	0x3d812f16	0.06307809
40	0x3e15600a	0.14587417
41	0xbe380fdd	-0.17974801
42	0xbe01e366	-0.12684402
43	0x3dfef2e2	0.1244867
44	0xbdcc969b	-0.09989663
45	0xbe09c3af	-0.13453554
46	0xbcff5ffb	-0.031173697
47	0xbbab3f95	-0.0052260854
48	0xbdd4ab02	-0.1038418
49	0xbe1d2c28	-0.15348876
50	0xbe322bd8	-0.17399538
51	0xbe13889a	-0.14407578
52	0x3e57f698	0.21090162
53	0x3d62b5d2	0.05534918
54	0xbe0d22ea	-0.1378285
55	0x3e57a23d	0.21057983
56	0x3df6255b	0.12018844
57	0xbb83712b	-0.0040112934
58	0xbc7536a6	-0.0149666425
59	0xbe1d741c	-0.15376323

rnn.bias_hh_l1 f4 [60]
0	0xbdb306dd	-0.087415434
1	0x3e3c1511	0.18367411
2	0xbe08c5db	-0.13356726
3	0x3ccde2be	0.025132533
4	0x3e26c24b	0.16285054
5	0xbe0eda20	-0.13950396
6	0x3ca978be	0.020687457
7	0x3d922943	0.07136776
8	0x3e5a6c47	0.21330367
9	0xbe06e7a5	-0.13174303
10	0xbdd87838	-0.10569805
11	0x3d892228	0.06695968
12	0x3da58c7c	0.08083436
13	0x3e49cf9c	0.19708103
14	0x3dcfc216	0.10144441
15	0x3e4293c2	0.19001678
16	0x3e573735	0.21017154
17	0xbd76b357	-0.060229626
18	0x3dfb2aa7	0.12263995
19	0x3e0d3876	0.1379107
20	0xbdc450c3	-0.095857166
21	0xbd97e388	-0.07416445
22	0x3da82860	0.08210826
23	0x3e08ad77	0.13347422
24	0x3d1ebd19	0.038754556
25	0xbe19c18c	-0.15015239
26	0xbe39b216	-0.1813434
27	0x3da89541	0.08231593
28	0xbe15a599	-0.14613952
29	0x3d720afd	0.05909251
30	0x3bed3e47	0.00724009
31	0x3e47dbfd	0.19517513
32	0x3e2363e2	0.15956071
33	0x3e518ca7	0.20463811
34	0x3e168f79	0.14703168
35	0xbe277d68	-0.16356432
36	0x3e2fe22d	0.17176123
37	0x3e414e57	0.1887754
38	0x3e004fc0	0.12530422
39	0xbc00da49	-0.007864543
40	0xbe06cac5	-0.13163288
41	0xbe4c6fb8	-0.19964492
42	0x3e4b61cf	0.1986153
43	0x3d74a6d2	0.059729405
44	0xbe3b720c	-0.18305224
45	0x3e1c919c	0.1528992
46	0x3e4af2ae	0.19819137
47	0x3d2044ba	0.039128043
48	0x3e0099c3	0.12558655
49	0xbe618492	-0.22023228
50	0xbe08e5f5	-0.13368972
51	0xbe5b0a21	-0.21390583
52	0xbe562cbf	-0.20915507
53	0x3c997e7f	0.018737076
54	0xbcf6eb0f	-0.030141382
55	0xbd897d8c	-0.06713399
56	0x3b30f33c	0.0027000448
57	0x3df69144	0.12039426
58	0x3e3bea8a	0.18351188
59	0xbdd8eb8d	-0.10591803

rnn.weight_ih_l1_reverse f4 [60, 40]
0	0x3e0159f3	0.12631969
1	0xbdafd0e5	-0.08584765
2	0x3de7511f	0.112947695
3	0xbdf709a9	-0.120623894
4	0xbe2085ba	-0.15676013
5	0x3cd3ac23	0.025838917
6	0xbd2900bb	-0.041260462
7	0x3c226a24	0.009913001
8	0xbd16868a	-0.0367494
9	0xbd51c3fa	-0.05121229
10	0xbe213a4e	-0.15744898
11	0x3e5048bf	0.2034025
12	0xbe09ffff	-0.13476561
13	0x3e547ecc	0.20751494
14	0xbdfe0d46	-0.124048755
15	0x3e0be7e8	0.13662684
16	0xbe3df0ee	-0.18548939
17	0x3e44e300	0.19227219
18	0x3e59475e	0.2121863
19	0x3e5ca20d	0.21546192
20	0x3e3f5f07	0.18688594
21	0x3e5a7148	0.21332276
22	0xbe2266d9	-0.15859546
23	0xbd4b2fbf	-0.04960608
24	0x3ded5454	0.1158835
25	0xbab90ef0	-0.0014118832
26	0xbe2f59ae	-0.17124054
27	0xbe3c009a	-0.18359604
28	0x3e68f330	0.22749019
29	0x3e5b27df	0.21401928
30	0x3d1d34ce	0.038380437
31	0x3deef1bc	0.11667201
32	0x3e542c2a	0.20719972
33	0xbe27ef68	-0.1639992
34	0xbe2c994f	-0.16855358
35	0x3e2d4ed5	0.16924603
36	0x3e5a75ec	0.21334046
37	0xbe19edc4	-0.15032107
38	0xbe5c478a	-0.21511665
39	0x3d7c9234	0.061662868
40	0xbd9a2cda	-0.07528086
41	0xbe513f90	-0.20434403
42	0xbe14ac81	-0.1451893
43	0xbe4bdc25	-0.19908197
44	0x3e0c73e6	0.13716087
45	0xbddad108	-0.10684401
46	0x3e1e40e7	0.15454446
47	0xbcbaf8fa	-0.0228238
48	0xbdce6eff	-0.100797646
49	0x3b843251	0.0040343185
50	0x3e60f4b6	0.2196835
51	0x3e4d60cb	0.20056455
52	0xbddbda83	-0.10735037
53	0xbbd3120f	-0.0064413617
54	0x3e197f7c	0.14990038
55	0x3e5403db	0.20704596
56	0x3e149122	0.14508489
57	0xbdc8f056	-0.098114654
58	0x3e0215c0	0.1270361
59	0x3cdc7bdf	0.026914535
60	0x3e106c56	0.14103827
61	0xbd0055b7	-0.031331744
62	0x3d26b9dd	0.040704597
63	0xbe57d044	-0.21075541
64	0xbe1e4a7d	-0.15458103
65	0x3e2a4278	0.16626918
66	0xbe12d1f1	-0.14337899
67	0xbe2d79f6	-0.16941056
68	0xbe249eae	-0.16076156
69	0x3d46abfa	0.048503853
70	0x3cbddee2	0.023177568
71	0x3dd74ec0	0.10513067
72	0x3e273a28	0.16330779
73	0xbdafff78	-0.08593649
74	0x3d82358e	0.06357871
75	0x3e58510e	0.2112467
76	0x3a3c3750	0.0007179873
77	0xbcaab6ad	-0.02083906
78	0x3e1062ae	0.14100143
79	0xbd0313cd	-0.032001305
80	0xbdd2d2e2	-0.10294129
81	0xbe69d3b1	-0.2283466
82	0x3ccdac1f	0.025106488
83	0x3d6d5952	0.05794651
84	0xbe132068	-0.14367831
85	0xbcbd11fa	-0.023079861
86	0xbda83431	-0.0821308
87	0x3df75401	0.12076569
88	0x3c6e769c	0.014554646
89	0xbe2b95f8	-0.16756427
90	0x3e5cdee4	0.21569401
91	0x3e212439	0.15736474
92	0xbe1f8b97	-0.15580593
93	0x3e2dc209	0.1696855
94	0xbd5346d3	-0.051581215
95	0x3d3ac83f	0.045601126
96	0x3d93986e	0.07206808
97	0xbe2bf344	-0.16792017
98	0xbe34f8f0	-0.17673087
99	0x3c8f3697	0.017482085
100	0x3d567189	0.05235437
101	0x3e229787	0.15878116
102	0xbd3609d5	-0.04444297
103	0x3e55fbb9	0.20896806
104	0x3e56a980	0.20963097
105	0x3e4f3570	0.20235229
106	0x3da40c69	0.080101795
107	0xbd923198	-0.071383655
108	0xbcd7141b	-0.026254704
109	0x3cc471f5	0.02398012
110	0x3e5b3873	0.21408252
111	0x3c7399f7	0.014868251
112	0xbe388926	-0.18021068
113	0xbcaf28ae	-0.021381702
114	0xbe09f4ba	-0.13472262
115	0xbe0fce43	-0.14043526
116	0xbd9eee27	-0.07760268
117	0x3e203116	0.15643725
118	0xbe505274	-0.20343953
119	0x3d1a9295	0.037737448
120	0x3e17cb05	0.1482354
121	0xbe106da2	-0.14104322
122	0x3d58650a	0.052830733
123	0x3e1c77a3	0.15280013
124	0x3b33cc92	0.0027435166
125	0x3cc5e84b	0.024158617
126	0xbd8988ff	-0.06715583
127	0xbdb90a1f	-0.090351336
128	0x3bcb6204	0.0062067527
129	0xbd1009b1	-0.035165492
130	0x3d9d9c69	0.076958485
131	0x3e474b93	0.19462423
132	0xbe2d3a64	-0.16916806
133	0x3e4dc026	0.2009283
134	0x3e19e667	0.15029298
135	0xbe5805c2	-0.21095946
136	0xbe50f9b4	-0.20407754
137	0x3e10df6d	0.1414773
138	0xba3f41b8	-0.00072958646
139	0x3e1e8d8a	0.1548368
140	0x3e35fa75	0.17771323
141	0xbd23c087	-0.03997853
142	0xbe39a18b	-0.1812803
143	0x3ce5cfed	0.028053248
144	0xbd8fd0a1	-0.07022215
145	0xbd2a0c97	-0.041515913
146	0x3c029bb1	0.00797169
147	0x3e68c15f	0.22730015
148	0xbe0d34aa	-0.13789621
149	0x3c71aa2f	0.014750048
150	0x3dfbb8d2	0.12291111
151	0xbdc65a5b	-0.09685203
152	0xbe5fb756	-0.21847281
153	0xbdc8fd32	-0.09813918
154	0xbdbd4943	-0.09242489
155	0x3e581fe0	0.2110591
156	0xbd1c997a	-0.038232304
157	0x3dde5b0d	0.1085721
158	0x3e3c13e0	0.18366957
159	0xbe025789	-0.12728705
160	0xbd27348e	-0.040821604
161	0xbda1efbc	-0.07907054
162	0x3da9ed6a	0.08297236
163	0x3e17dbd0	0.14829946
164	0xbe2497eb	-0.16073577
165	0xbe14956e	-0.14510128
166	0xbb9a9468	-0.0047173984
167	0xbd7db768	-0.061942488
168	0x3e55e4c9	0.20888056
169	0x3e3ab20a	0.18231979
170	0xbdb54185	-0.088503875
171	0x3e21052e	0.15724632
172	0xbb5c4965	-0.0033613082
173	0x3e0e816a	0.13916555
174	0xbd0216b8	-0.031759948
175	0x3e22e96e	0.15909359
176	0xbc5cfea6	-0.013488447
177	0x3e54b70f	0.20772956
178	0xbd75d5f1	-0.060018484
179	0x3e15594e	0.14584848
180	0x3e51d1ab	0.20490138
181	0xbe0463e2	-0.12928727
182	0xbe1328b7	-0.14371
183	0x3ca6f979	0.02038263
184	0xbdf5fce8	-0.12011129
185	0x3d0f76fc	0.03502558
186	0x3d3ebb25	0.046565194
187	0x3de86f88	0.11349398
188	0x3cae445e	0.021272834
189	0xbe023efd	-0.1271934
190	0xbdb78339	-0.089605756
191	0x3e245344	0.16047388
192	0x3e4eab0b	0.20182435
193	0x3ddcd71e	0.10783218
194	0xbd820b8a	-0.06349857
195	0x3e0be23a	0.13660517
196	0xbe03f8ef	-0.1288793
197	0x3e2f78d5	0.17135938
198	0xbd4f8e42	-0.050672777
199	0xbd13cae6	-0.03608217
200	0x3e54dc18	0.20787084
201	0xbe5450db	-0.20733969
202	0x3da82a62	0.08211209
203	0xbd84eff0	-0.06491077
204	0x3d4b0cc6	0.04957273
205	0x3cbc2145	0.022965083
206	0xbdb2dd48	-0.08733612
207	0xbc7d02f9	-0.015442603
208	0x3b0d2699	0.0021537899
209	0xba2627fb	-0.0006338355
210	0x3e6a49a6	0.22879657
211	0xbbb59bec	-0.005542269
212	0xbdcea579	-0.10090155
213	0x3da3dc4d	0.080010034
214	0xbe1d3480	-0.15352058
215	0xbdd7dae5	-0.10539798
216	0xbb006d27	-0.001959631
217	0x3dce74bd	0.1008086
218	0x3d0385db	0.032110076
219	0x3d250705	0.040289897
220	0xbd583d50	-0.052792847
221	0x3e48e0f3	0.19617061
222	0xbe37896c	-0.17923516
223	0xbe24927a	-0.16071501
224	0xbe2965ae	-0.16542694
225	0x3de8bbd4	0.1136395
226	0x3db09e6d	0.08623967
227	0x3d5bc507	0.053654697
228	0x3be222d2	0.0069011236
229	0xbdef42a1	-0.1168263
230	0xbe4af3bd	-0.19819541
231	0x3e14a258	0.14515054
232	0x3e09ad4e	0.13445017
233	0x3def519b	0.11685487
234	0xbd7a8a0a	-0.0611668
235	0xbe431616	-0.19051394
236	0xbda01d91	-0.07818139
237	0xbe5ba531	-0.21449734
238	0xbd361bc6	-0.04446008
239	0x3e563a8d	0.20920773
240	0x3cb6d1b5	0.022316793
241	0x3e5e0483	0.21681409
242	0xbd3f77d3	-0.046745133
243	0xbdf91520	-0.121622324
244	0xbe2f952d	-0.1714675
245	0x3e5baf0f	0.21453498
246	0xbe5a9346	-0.21345243
247	0xbe096bd6	-0.13420042
248	0xbdafb493	-0.08579364
249	0x3da40b6b	0.0800999
250	0x3e1e8cbd	0.15483375
251	0x3dc0c393	0.09412303
252	0x3c9b4b89	0.018956916
253	0x3e4f4a45	0.20243175
254	0x3e072372	0.13197115
255	0xbdde3cf3	-0.10851469
